best_ZSSR_model.pth (torch, 906182 bytes, 16 tensors)

layers.0.weight f4 [64, 3, 3, 3]
0	0xbb9942a1	-0.0046771322
1	0xbcb4e313	-0.022080934
2	0xbc731871	-0.01483737
3	0x3a9bb753	0.0011880196
4	0x3a1d16ca	0.00059924705
5	0x3afef606	0.0019451983
6	0x3bb7838e	0.0056003993
7	0x3ac216dc	0.0014807838
8	0x3b75ea88	0.0037523825
9	0xbc6d70ce	-0.014492227
10	0xbcb2ef85	-0.021842727
11	0xbc73fec3	-0.014892283
12	0xbb6123b7	-0.0034353563
13	0xba1c1979	-0.00059547235
14	0x3baaa85b	0.005208058
15	0xbb97b658	-0.0046298914
16	0xba623be4	-0.000863014
17	0x3abf291c	0.0014584395
18	0xbc98df01	-0.018661024
19	0xbcaf4a70	-0.0213978
20	0xbc9d6aab	-0.019215902
21	0xbbd8cecb	-0.0066164485
22	0xbb4ef789	-0.0031580648
23	0xbbc3e54c	-0.005978262
24	0xbb2fda9b	-0.002683318
25	0xbbf260df	-0.007396802
26	0xbbf67bfc	-0.0075221043
27	0xbcb8a30c	-0.022538684
28	0xbe043f19	-0.12914695
29	0x3daf5d7d	0.08562753
30	0xbdd7e113	-0.105409764
31	0x3e328f29	0.17437424
32	0xbdece7da	-0.1156766
33	0xbd6deda9	-0.05808798
34	0xbde40dd0	-0.11135447
35	0xbc103e93	-0.008803981
36	0x3d832d4b	0.06405123
37	0xbd948ed2	-0.07253803
38	0x3e41243f	0.18861483
39	0xbdac6ad7	-0.084188156
40	0x3e4c1d76	0.19933113
41	0x3d79be35	0.06097241
42	0x3e186c58	0.1488508
43	0xbde22a5f	-0.11043238
44	0xbd740ecb	-0.05958442
45	0x3d48f582	0.04906226
46	0xbe3446d3	-0.17605142
47	0x3dbf738c	0.09348211
48	0xbc7569ca	-0.014978835
49	0x3dfb1eb4	0.122617155
50	0xbd823d91	-0.06359399
51	0x3e05fa1e	0.13083693
52	0xbd166e9f	-0.03672659
53	0xbdab7c87	-0.08373361
54	0xbb8b3fe8	-0.0042495616
55	0x3e006fde	0.12542674
56	0x3e011b4b	0.12608068
57	0xbd76f6dc	-0.060294017
58	0x3d039226	0.0321218
59	0x3d806f06	0.06271176
60	0xbdde0ba0	-0.10842061
61	0xbd8819a7	-0.06645518
62	0xbd6dbfec	-0.05804436
63	0xbd999ef8	-0.07501024
64	0xbc99caae	-0.018773403
65	0x3e0e290f	0.1388285
66	0x3ddaf094	0.10690418
67	0x3e12d650	0.14339566
68	0x3dc3ca7a	0.09560104
69	0x3d17e5e9	0.037084494
70	0x3d883c69	0.06652147
71	0xbce20ab6	-0.027592998
72	0x3dcdab27	0.1004241
73	0x3ced562d	0.028971756
74	0x3c6f61e3	0.01461074
75	0xbdc66ad6	-0.09688346
76	0x3dab691b	0.08369657
77	0xbdd49a79	-0.10381026
78	0xbdfcbd53	-0.12340798
79	0xbd90b177	-0.07065099
80	0xbded9c79	-0.116021104
81	0x3cc3fdf9	0.023924815
82	0xbde51c93	-0.11187091
83	0xbd423e57	-0.047422733
84	0xbe02e516	-0.12782702
85	0x3da1ef84	0.07907012
86	0xbda66a44	-0.08125737
87	0x3d5c08eb	0.053719442
88	0xbde4476b	-0.111464344
89	0xbd16b987	-0.036798026
90	0x3d97752d	0.073953964
91	0xbd0e9735	-0.03481217
92	0x3c29d400	0.010365486
93	0xbd1a76c7	-0.03771093
94	0x3db48eae	0.088162765
95	0x3c45a4f7	0.012063256
96	0x3df7e548	0.12104279
97	0xbd3aac5e	-0.04557454
98	0x3db0bcab	0.086297356
99	0x3c97ea30	0.018544286
100	0xbd532062	-0.051544555
101	0x3d38e868	0.045143515
102	0xbdac2d9a	-0.08407135
103	0x3d3785a2	0.044805177
104	0xbd0a13da	-0.03371034
105	0x3da4ae3e	0.080410466
106	0xbd9e64ad	-0.07734046
107	0x3cdf9645	0.027293334
108	0xbb2685f9	-0.0025409444
109	0xbb53d1f7	-0.0032321194
110	0xbb435317	-0.0029804164
111	0xbb240319	-0.002502626
112	0xbb7d507a	-0.0038652704
113	0xbb679e54	-0.0035342174
114	0xbb2229ae	-0.0024744081
115	0xbb5e5c68	-0.003392959
116	0xbb44efe0	-0.0030050203
117	0xbad63c9b	-0.0016344966
118	0xbb254de9	-0.002522344
119	0xbb162ba1	-0.0022914188
120	0xbae0acd3	-0.0017141349
121	0xbb34c98d	-0.0027585954
122	0xbb361ec8	-0.0027789343
123	0xbacecfbf	-0.0015778466
124	0xbb15a730	-0.0022835247
125	0xbb1c36b9	-0.0023836328
126	0xba825edd	-0.0009946484
127	0xbab72182	-0.0013971778
128	0xbaa8d213	-0.001287999
129	0xba88d4f7	-0.0010439445
130	0xbae36fb1	-0.0017352012
131	0xbac8ce2e	-0.0015320235
132	0xba4c7440	-0.0007799305
133	0xbaa1d633	-0.0012347162
134	0xbab175a8	-0.0013539093
135	0x3d9e3f5f	0.07726931
136	0xbde10910	-0.10988057
137	0x3cc6d40e	0.024271037
138	0x3df9b48a	0.12192638
139	0x3e07a5d7	0.13246857
140	0xbe09a466	-0.1344162
141	0x3d908cdb	0.07058116
142	0x3d5a8051	0.05334503
143	0xbddec903	-0.10878184
144	0x3bd8a38f	0.0066112946
145	0x3dd8ce4e	0.105862245
146	0x3de22bb2	0.110434905
147	0xbdd3af1d	-0.103361346
148	0xbdbeb2e9	-0.09311468
149	0xbdcdce70	-0.100491405
150	0x3df8785b	0.12132331
151	0x3d96edc2	0.073695675
152	0xbe0378b2	-0.1283901
153	0x3de30a4a	0.11085947
154	0x3d4cbc51	0.04998428
155	0xbdda2645	-0.106518306
156	0x3d4a00b2	0.04931707
157	0xbc08af9e	-0.008342652
158	0x3da48343	0.08032849
159	0x3bc353f2	0.005960935
160	0x3d854795	0.06507794
161	0x3dab0dbd	0.0835223
162	0x1a246f02	3.4004077e-23
163	0x136d73b0	2.9970644e-27
164	0x161453b6	1.1981759e-25
165	0x98c31a08	-5.0432603e-24
166	0x16055573	1.0770617e-25
167	0x940e571d	-7.186348e-27
168	0x957a683a	-5.0569318e-26
169	0x94273676	-8.442086e-27
170	0x1895cb52	3.87209e-24
171	0x1362df97	2.8635449e-27
172	0x1369308b	2.9432668e-27
173	0x93becb6e	-4.816334e-27
174	0x14b04d47	1.7801939e-26
175	0x91ec50cd	-3.7284032e-28
176	0x15295db3	3.4203194e-26
177	0x1476b09c	1.2454656e-26
178	0x9389a035	-3.474164e-27
179	0x9381704b	-3.2674908e-27
180	0x136932f3	2.9433854e-27
181	0x144b3b80	1.0260615e-26
182	0x136fd830	3.027263e-27
183	0x94241db3	-8.285741e-27
184	0x133792fc	2.3170316e-27
185	0x931a13a5	-1.9447218e-27
186	0x93957d65	-3.7736537e-27
187	0x958d81bd	-5.715414e-26
188	0x135dfa8c	2.801765e-27
189	0xbb8f2c12	-0.0043692673
190	0xbd9e1b5d	-0.07720063
191	0x3d86adc7	0.06576114
192	0x3ddec0ff	0.10876655
193	0x3e2cc977	0.16873728
194	0x3e028aa5	0.12748201
195	0x3e335a7c	0.17514986
196	0xbcac5274	-0.02103541
197	0xbdc3a6a7	-0.09553271
198	0xbdbd72fe	-0.09250449
199	0x3de71860	0.11283946
200	0xbe0da040	-0.13830662
201	0x3d1e62a1	0.03866828
202	0xbd622d90	-0.055219233
203	0xbbc07bf2	-0.0058741504
204	0x3da4d3a6	0.08048181
205	0xbe0b30d0	-0.13592839
206	0x3d358bf0	0.044322908
207	0xbd20ea0d	-0.03928571
208	0x3e00bf88	0.12573063
209	0xbd00190c	-0.031273887
210	0xbd694f33	-0.056960296
211	0x3dd7d224	0.10538128
212	0x3de569b3	0.11201801
213	0x3dc7ae38	0.097500265
214	0xbd9914e8	-0.07474691
215	0xbda26793	-0.079299115
216	0xba965808	-0.0011470327
217	0xbaab42d4	-0.0013066181
218	0xbaa8b961	-0.001287263
219	0xbadfb05f	-0.0017066112
220	0xbb001043	-0.0019540943
221	0xbaf04121	-0.0018329957
222	0xbaf23b93	-0.0018480889
223	0xbb0ccdb0	-0.0021484904
224	0xbafc77f9	-0.0019261829
225	0xba835076	-0.0010018486
226	0xba870703	-0.0010301772
227	0xba9ec9ba	-0.0012114563
228	0xbabdd64d	-0.0014483422
229	0xbad354b1	-0.0016123262
230	0xbac4d51a	-0.0015017122
231	0xbabf04ed	-0.0014573612
232	0xbad9a0d4	-0.0016603717
233	0xbac7aa0e	-0.0015233175
234	0xb99c1fcf	-0.00029778338
235	0xb9df7ca3	-0.00042626736
236	0xb9e61128	-0.000438818
237	0xba3c9610	-0.0007193992
238	0xba4d0fba	-0.0007822473
239	0xba2488e3	-0.0006276501
240	0xb9e65def	-0.00043939005
241	0xba10576b	-0.00055061904
242	0xba01b4fd	-0.0004947929
243	0xbbeadf9f	-0.007167771
244	0xbc0394bb	-0.008031066
245	0xbc087da7	-0.008330739
246	0xbbd264e1	-0.006420717
247	0xbbac3fae	-0.0052566146
248	0xbab00f9f	-0.001343239
249	0xbbc7ec77	-0.006101187
250	0xbbb8b5be	-0.0056368997
251	0xbbdcc396	-0.006737183
252	0xbbddc735	-0.006768132
253	0xbbe9b292	-0.007131883
254	0xbbf4a39e	-0.0074657938
255	0xbba85a0e	-0.0051376885

layers.0.bias f4 [64]
0	0x3c92cfe9	0.017921405
1	0x3e3b81ef	0.18311284
2	0x3e009404	0.12556463
3	0x3e50262a	0.20327058
4	0xbc0c8b8d	-0.008578193
5	0xbdfc70e0	-0.12326217
6	0xae8f9ca4	-6.530712e-11
7	0x3bbb17ae	0.00570961
8	0xbba5e6a6	-0.005062896
9	0xbbd10407	-0.006378654
10	0x3ddb841a	0.10718556
11	0x3d8708fc	0.065935105
12	0xbc54ee12	-0.0129962135
13	0x3dfebfd5	0.12438933
14	0x3bed99ee	0.007251016
15	0x3dfac433	0.12244453
16	0xbdfbe004	-0.12298587
17	0xbbc32e0e	-0.005956418
18	0x3d7f0dd4	0.062269047
19	0xaa73c6fc	-2.1651772e-13
20	0xba842a0a	-0.0010083329
21	0x3c9cccec	0.019140683
22	0xbae37459	-0.00173534
23	0x3db80070	0.089844584
24	0x9a4f00d8	-4.2807278e-23
25	0x3e470393	0.19434957
26	0x3c7701fe	0.015076159
27	0x3d6979b8	0.057000846
28	0xbdc6e6ca	-0.09711988
29	0xbbc57a0a	-0.006026511
30	0xbc5d6b2e	-0.013514323
31	0xbd21542d	-0.039386917
32	0xba1f0367	-0.00060658756
33	0xbb036dbb	-0.0020054418
34	0x3d36b93f	0.04461026
35	0x3de3019f	0.110842936
36	0xb8251412	-3.9357757e-05
37	0x3e190088	0.14941609
38	0x3dea2063	0.114319585
39	0x3d7fa704	0.062415138
40	0xbc810c9d	-0.015753085
41	0x3e462f0f	0.19353889
42	0x3e3fcb14	0.18729812
43	0xbe34dc2c	-0.17662114
44	0x3cb32c10	0.021871597
45	0xbb018382	-0.0019762223
46	0xbca8a390	-0.020585805
47	0x3d3d234f	0.04617625
48	0xbe338eb1	-0.17534901
49	0xbd28003d	-0.041015852
50	0x3d8cf3f8	0.06882471
51	0x3df668e4	0.12031725
52	0xbb2eeb3c	-0.0026690504
53	0xbaafeddb	-0.0013422327
54	0x3e3c56a0	0.1839242
55	0x3e0c855a	0.13722745
56	0x3e0a1677	0.13485132
57	0x3df5a8b0	0.11995065
58	0x3dd1e1b1	0.10248125
59	0xbb83587f	-0.0040083523
60	0x3b8d7a34	0.0043175463
61	0xbd99624a	-0.0748945
62	0x3e27673d	0.16347976
63	0xbe00a4bc	-0.12562841

layers.1.weight f4 [64, 64, 3, 3]
0	0x0ddf3527	1.3756232e-30
1	0x91c88a52	-3.1639683e-28
2	0x9231c420	-5.6093095e-28
3	0x10f907e0	9.8225316e-29
4	0x108afa05	5.481662e-29
5	0x0e454f5a	2.4320331e-30
6	0x116a10ff	1.8464583e-28
7	0x11a8637f	2.6567046e-28
8	0x10c38864	7.712408e-29
9	0x159e86fd	6.4028666e-26
10	0x96727919	-1.9586816e-25
11	0x95fc58a6	-1.0192185e-25
12	0x96348a48	-1.4583918e-25
13	0x15369681	3.6873334e-26
14	0x9675d8a4	-1.9859302e-25
15	0x166ddae3	1.9213776e-25
16	0x95966690	-6.074633e-26
17	0x968ddda4	-2.2919653e-25
18	0x15805911	5.183931e-26
19	0x16db9d7b	3.5480742e-25
20	0x9767daf1	-7.491647e-25
21	0x969303bf	-2.3751495e-25
22	0x970fb352	-4.6432126e-25
23	0x97608153	-7.2541534e-25
24	0x17395e12	5.9895457e-25
25	0x1768d409	7.523087e-25
26	0x15cec5c9	8.351479e-26
27	0x96328a53	-1.4422373e-25
28	0x95e23ed6	-9.137981e-26
29	0x966907b8	-1.8824026e-25
30	0x155623f7	4.3245327e-26
31	0x1562c56e	4.579608e-26
32	0x9639fcbd	-1.5023931e-25
33	0x96133e82	-1.189429e-25
34	0x15fb293a	1.01443137e-25
35	0x95f40aef	-9.8568065e-26
36	0x0005f9dc	5.4881e-40
37	0x00059df9	5.15847e-40
38	0x80060a3e	-5.54687e-40
39	0x8005b666	-5.2461e-40
40	0x0005cd6b	5.32868e-40
41	0x0005af7e	5.22132e-40
42	0x8005930f	-5.11932e-40
43	0x8005886a	-5.08114e-40
44	0x8006294a	-5.65825e-40
45	0x950dea27	-2.8659437e-26
46	0x13eb465f	5.939173e-27
47	0x1537039a	3.6959397e-26
48	0x154cdafc	4.137022e-26
49	0x95168983	-3.0400736e-26
50	0x960e4bfe	-1.1494648e-25
51	0x94148677	-7.498609e-27
52	0x9557a54c	-4.35493e-26
53	0x94a00c0e	-1.6160626e-26
54	0x00057b2e	5.03366e-40
55	0x80057512	-5.01174e-40
56	0x8005ba1e	-5.25944e-40
57	0x80065064	-5.79852e-40
58	0x8005fba1	-5.49445e-40
59	0x0005d7cf	5.36595e-40
60	0x8005a3ad	-5.17893e-40
61	0x0006513c	5.80154e-40
62	0x80067246	-5.92007e-40
63	0x96875759	-2.186555e-25
64	0x954a3c3d	-4.0841095e-26
65	0x96f2073a	-3.910177e-25
66	0x16817c28	2.0919428e-25
67	0x16b225b9	2.8781257e-25
68	0x164e03b8	1.6641721e-25
69	0x9690ef0a	-2.341531e-25
70	0x16901a62	2.3281105e-25
71	0x96cd49a8	-3.316602e-25
72	0x00068e59	6.02078e-40
73	0x8006b36a	-6.15375e-40
74	0x00059a2d	5.14485e-40
75	0x000584a5	5.06761e-40
76	0x0005d673	5.36107e-40
77	0x8006444e	-5.75516e-40
78	0x8005de68	-5.38962e-40
79	0x000644cb	5.75691e-40
80	0x8005ffe8	-5.5098e-40
81	0x00060175	5.51536e-40
82	0x00058659	5.07372e-40
83	0x00058ec0	5.10387e-40
84	0x000656dc	5.82172e-40
85	0x000678d6	5.94361e-40
86	0x0005def6	5.39161e-40
87	0x8006ac9c	-6.12934e-40
88	0x00059e4b	5.15962e-40
89	0x8005bb6d	-5.26413e-40
90	0x1428fd26	8.531757e-27
91	0x146b49a6	1.18789926e-26
92	0x94f9970a	-2.5202149e-26
93	0x14dc2a4e	2.223101e-26
94	0x14f2c05a	2.4511625e-26
95	0x158b4402	5.624895e-26
96	0x157290ed	4.8985837e-26
97	0x1593202b	5.942358e-26
98	0x12279ce0	5.288927e-28
99	0x95eddd04	-9.607224e-26
100	0x13881ab6	3.4357566e-27
101	0x9565d4fe	-4.6414203e-26
102	0x1527b9fd	3.38721e-26
103	0x1383ff42	3.3320753e-27
104	0x14796f2f	1.25932145e-26
105	0x159cfc42	6.340589e-26
106	0x14c6fb3a	2.0091982e-26
107	0x15d70daf	8.68594e-26
108	0x0001488e	1.17863e-40
109	0x00044254	3.91136e-40
110	0x8003b442	-3.40171e-40
111	0x800206fe	-1.8618e-40
112	0x0003469a	3.00834e-40
113	0x8005f341	-5.4644e-40
114	0x0006b96c	6.1753e-40
115	0x800634fa	-5.70017e-40
116	0x0005afd5	5.22254e-40
117	0x160506c1	1.0745786e-25
118	0x159e6ec2	6.3990437e-26
119	0x16c1827e	3.1263184e-25
120	0x9688fd37	-2.2131786e-25
121	0x96a30304	-2.6335973e-25
122	0x968d835d	-2.286268e-25
123	0x96ac365c	-2.7822404e-25
124	0x16a79dbb	2.7079847e-25
125	0x9693402d	-2.3789631e-25
126	0x0366f9b9	6.7877593e-37
127	0x838851f3	-8.012176e-37
128	0x03d58c9e	1.2551299e-36
129	0x01069dbb	2.472508e-38
130	0x82f44dd2	-3.5897244e-37
131	0x032c9da2	5.072721e-37
132	0x003b871e	5.466765e-39
133	0x0388f37f	8.0492655e-37
134	0x0364ed9b	6.7275936e-37
135	0x141ed807	8.019565e-27
136	0x11955a4f	2.3563712e-28
137	0x14d4fff8	2.1507491e-26
138	0x1441371b	9.7548775e-27
139	0x92ac8d33	-1.0889534e-27
140	0x154430c3	3.962035e-26
141	0x14b205bb	1.7975667e-26
142	0x144d196d	1.03548694e-26
143	0x151029da	2.9113583e-26
144	0x1508af0e	2.7603075e-26
145	0x144837d8	1.0108433e-26
146	0x93eb3b44	-5.938078e-27
147	0x15640e4e	4.6055518e-26
148	0x946ba0ad	-1.1896156e-26
149	0x950655ce	-2.7128772e-26
150	0x95576ab4	-4.3503078e-26
151	0x1476fb06	1.2469332e-26
152	0x14a6e4f8	1.6852029e-26
153	0x8005a562	-5.18506e-40
154	0x000560c3	4.93889e-40
155	0x00058fd9	5.1078e-40
156	0x8005c3e8	-5.29455e-40
157	0x0006af1e	6.13833e-40
158	0x8006a651	-6.10676e-40
159	0x8005c1f0	-5.28749e-40
160	0x80065d08	-5.84386e-40
161	0x8006241d	-5.63968e-40
162	0x934349bb	-2.4648812e-27
163	0x951f07d3	-3.2115967e-26
164	0x9524a4c6	-3.324952e-26
165	0x14990f07	1.5454979e-26
166	0x13be6b5b	4.8068604e-27
167	0x14b8962f	1.8638489e-26
168	0x15247296	3.320993e-26
169	0x92f20416	-1.5273354e-27
170	0x138ad68a	3.504765e-27
171	0x0005c33c	5.29214e-40
172	0x0005ee8e	5.44755e-40
173	0x00065668	5.8201e-40
174	0x80057283	-5.00257e-40
175	0x000680ec	5.97261e-40
176	0x00059685	5.13174e-40
177	0x0005afe6	5.22278e-40
178	0x800670d1	-5.91484e-40
179	0x80058757	-5.07728e-40
180	0x15fe1ece	1.02638384e-25
181	0x96941156	-2.392163e-25
182	0x16b635de	2.943768e-25
183	0x966ae130	-1.8973426e-25
184	0x16a49306	2.6588414e-25
185	0x169faaa8	2.5795535e-25
186	0x1690340d	2.3297303e-25
187	0x96971446	-2.440816e-25
188	0x15d1b5fb	8.470154e-26
189	0x95d5b3b9	-8.631357e-26
190	0x16866bea	2.171697e-25
191	0x951373b9	-2.9777703e-26
192	0x962d95e3	-1.4022125e-25
193	0x1624007f	1.3247971e-25
194	0x167139a2	1.9486011e-25
195	0x969dfe49	-2.5525194e-25
196	0x96828cc8	-2.1091478e-25
197	0x969d7d15	-2.5443656e-25
198	0x0119c064	2.8239695e-38
199	0x0044573c	6.276108e-39
200	0x80117232	-1.602169e-39
201	0x00a3f285	1.5056185e-38
202	0x8104ef44	-2.4416236e-38
203	0x0132cbd8	3.2839687e-38
204	0x8014d9ff	-1.914912e-39
205	0x01074580	2.4845448e-38
206	0x00816ccb	1.1885807e-38
207	0x98200ab6	-2.0684923e-24
208	0x18c77fa9	5.15692e-24
209	0x1b0c7372	1.1617831e-22
210	0x98ffdfe2	-6.614202e-24
211	0x99d889e9	-2.2389578e-23
212	0x1aa549c3	6.836157e-23
213	0x9964b79b	-1.18244026e-23
214	0x99e0b159	-2.3232687e-23
215	0x1a076f2b	2.8007146e-23
216	0x800573e4	-5.00751e-40
217	0x80057056	-4.99476e-40
218	0x00067893	5.94267e-40
219	0x0005d09e	5.34015e-40
220	0x00065630	5.81931e-40
221	0x0005a705	5.19093e-40
222	0x8005f9c7	-5.48781e-40
223	0x8005dc30	-5.38166e-40
224	0x8005e00d	-5.39552e-40
225	0x1477cfea	1.2511317e-26
226	0x959741c4	-6.1092174e-26
227	0x15631e1d	4.586604e-26
228	0x9643505f	-1.5777335e-25
229	0x163ee340	1.5419785e-25
230	0x1600fd11	1.0419611e-25
231	0x95b4bb43	-7.299687e-26
232	0x941d697e	-7.947279e-27
233	0x16817443	2.0914445e-25
234	0x15a3ec7a	6.620827e-26
235	0x161e029e	1.2763964e-25
236	0x152f1982	3.536109e-26
237	0x15c77a48	8.0568386e-26
238	0x165e1027	1.7938114e-25
239	0x968ab5c5	-2.2409815e-25
240	0x1564d4f5	4.6212227e-26
241	0x162c3b2e	1.3912723e-25
242	0x163a0b93	1.5028613e-25
243	0x16a69111	2.6910296e-25
244	0x96178306	-1.2239027e-25
245	0x970e8ee1	-4.6063013e-25
246	0x16b6826a	2.9485989e-25
247	0x15394a36	3.7418995e-26
248	0x96111fca	-1.1723038e-25
249	0x163bab05	1.5159704e-25
250	0x16a7591f	2.7036548e-25
251	0x96efb6ae	-3.872782e-25
252	0x92a6c942	-1.0525687e-27
253	0x119d79ca	2.484529e-28
254	0x1151a16d	1.6536936e-28
255	0x92481e7b	-6.3146442e-28

layers.1.bias f4 [64]
0	0xaabc7f03	-3.348364e-13
1	0xb649dff2	-3.0081687e-06
2	0xbc94f215	-0.01818184
3	0xb87e2e46	-6.0601415e-05
4	0x3c9a2520	0.01881653
5	0x3aaf3adc	0.0013368982
6	0x3d9640cf	0.0733658
7	0x3cfe0825	0.031009743
8	0xb92dc999	-0.00016573667
9	0xbccd0a44	-0.02502931
10	0xbc457bad	-0.012053412
11	0x3c3f3ed1	0.011672691
12	0xbc0a5e69	-0.008445361
13	0xaf08621f	-1.2403988e-10
14	0xac8d6469	-4.018609e-12
15	0x3c23535a	0.009968603
16	0xbc91ab2a	-0.017781813
17	0xbc65ce05	-0.01402617
18	0xbc831268	-0.015999988
19	0xbb0eb583	-0.002177567
20	0x3cc113fb	0.023569098
21	0xbb639166	-0.0034724115
22	0x3c623147	0.013805694
23	0xac70e1ba	-3.4231355e-12
24	0xbc059500	-0.0081532
25	0xbc9fcbe3	-0.0195064
26	0xbcaa7fb6	-0.02081285
27	0xae212a55	-3.664476e-11
28	0xbcab5cdb	-0.0209183
29	0x3d07cf3a	0.03315661
30	0xbb8a890b	-0.0042277626
31	0xbcccf218	-0.025017783
32	0xbc96772c	-0.018367372
33	0x3d1c4d5b	0.03815971
34	0xbcc38dc9	-0.02387132
35	0xbc9d3d93	-0.0191944
36	0x3be130f5	0.006872291
37	0xbc948458	-0.018129513
38	0x3df533d4	0.11972776
39	0xbcbaf558	-0.022822067
40	0x3c232a73	0.009958851
41	0xbb038b46	-0.0020072027
42	0xbc9da11e	-0.019241866
43	0x3c27a9dc	0.010233369
44	0xb9de78d2	-0.00042433158
45	0x3d927e55	0.07153002
46	0x3cddcf07	0.027076257
47	0xbca9af7a	-0.020713557
48	0x3dc19eb4	0.09454098
49	0xbc04aa4b	-0.008097242
50	0xbb19d25c	-0.0023471331
51	0xbc12614b	-0.008934329
52	0xa9bc5016	-8.36277e-14
53	0x3ce67a18	0.02813439
54	0x3b22340f	0.0024750268
55	0x3ceea4c7	0.029131306
56	0xbcacf244	-0.021111615
57	0xb9bd2206	-0.0003607424
58	0xae866505	-6.111559e-11
59	0xbbbd7a7d	-0.005782424
60	0xb8b5b136	-8.663761e-05
61	0xbc60c04b	-0.013717721
62	0xbd143b02	-0.036189087
63	0xb42de3d2	-1.6194761e-07

layers.2.weight f4 [64, 64, 3, 3]
0	0x958fa5d3	-5.8018865e-26
1	0x1708135e	4.3968415e-25
2	0x177f5d0c	8.2512385e-25
3	0x95c38f3d	-7.898586e-26
4	0x16e16201	3.641256e-25
5	0x971d10c9	-5.075062e-25
6	0x1714cb41	4.807792e-25
7	0x97438283	-6.3172627e-25
8	0x99dff218	-2.315544e-23
9	0x0dcd969f	1.2670361e-30
10	0x11bdea49	2.9963332e-28
11	0x9276550e	-7.772875e-28
12	0x989a9477	-3.995798e-24
13	0x98b02977	-4.5536802e-24
14	0x98a56a49	-4.275882e-24
15	0x1671adfd	1.9522726e-25
16	0x94f67b90	-2.4888389e-26
17	0x16366a7b	1.4735442e-25
18	0x3cf5f700	0.030025005
19	0x3cb4086a	0.021976668
20	0xbd08c04a	-0.033386506
21	0x3c43a16d	0.011940342
22	0x3cf42224	0.029801436
23	0xbcecd90f	-0.028912095
24	0x3c8eca35	0.017430404
25	0x3d0203e1	0.03174198
26	0xbd14d140	-0.03633237
27	0x2938a7b6	4.1001673e-14
28	0xa9a453bc	-7.2975886e-14
29	0xa995b523	-6.6483514e-14
30	0x299b80d9	6.905734e-14
31	0x2788eab3	3.8002044e-15
32	0x296964a2	5.1823678e-14
33	0xa8ead0c3	-2.6069755e-14
34	0xa893d254	-1.6411494e-14
35	0xa88ad183	-1.5411939e-14
36	0xbb08ebf5	-0.0020892594
37	0xbb0455d6	-0.0020192764
38	0x3596b1e1	1.122764e-06
39	0xbb028ca3	-0.0019920252
40	0xbb04ed9b	-0.0020283225
41	0xb984e575	-0.0002534796
42	0xbb09a51e	-0.0021002959
43	0xbb0ea9e0	-0.0021768734
44	0xba155887	-0.00056970905
45	0x37a2d49b	1.9410907e-05
46	0x39541340	0.00020225067
47	0x3930bd7d	0.00016855258
48	0xb7cdff62	-2.4556826e-05
49	0x393052e0	0.00016815541
50	0x38c571fa	9.414922e-05
51	0xb8fc28bf	-0.00012023886
52	0xb9110153	-0.00013828771
53	0xb88d95d2	-6.75131e-05
54	0xbad6c9a9	-0.0016387004
55	0xbc13c7fe	-0.00901985
56	0x3cdc0a30	0.026860327
57	0xbc102457	-0.008797727
58	0xbc637ab7	-0.013884238
59	0x3d6f5a72	0.058435865
60	0x3c5e00a7	0.01354996
61	0xbc0e4351	-0.008683042
62	0x3cc3c5d0	0.023898035
63	0x3c9753ab	0.018472513
64	0xbc98e485	-0.018663654
65	0xbbbd4cb6	-0.005776967
66	0x3bcc80fd	0.0062409625
67	0xbc64e154	-0.013969738
68	0x3c6ba028	0.014381446
69	0xbc70806e	-0.0146790575
70	0xbb81c0fa	-0.003959772
71	0x3c1e1ca6	0.009650385
72	0x336d8298	5.5299637e-08
73	0x3386aac2	6.270922e-08
74	0x32f2e909	2.827848e-08
75	0xb255bd81	-1.244132e-08
76	0xa8f901f5	-2.7645402e-14
77	0x30db993f	1.5977902e-09
78	0xa90ef2bf	-3.1740883e-14
79	0xa8d44602	-2.356709e-14
80	0x294ba6a1	4.5219582e-14
81	0x3c8b7790	0.017024785
82	0x3bb8c574	0.0056387726
83	0xbb787103	-0.0037909157
84	0x3c92344d	0.017847205
85	0x3bcaaa52	0.0061848545
86	0xbb4c3726	-0.00311608
87	0x3cb0223e	0.021500703
88	0x3bac0781	0.005249918
89	0xbb89f286	-0.0042098192
90	0xbb3d9cad	-0.0028932497
91	0x3b83b7a8	0.0040196963
92	0x3a8039df	0.0009782872
93	0xbb3c3166	-0.0028715967
94	0x3bb8ff3f	0.005645662
95	0xba27cf48	-0.0006401432
96	0x39e05df7	0.0004279462
97	0x3b7c42ea	0.0038492032
98	0xbb6b418a	-0.0035897219
99	0x3c0f12c7	0.008732504
100	0x3c402c77	0.011729351
101	0x3bb29b9d	0.0054506795
102	0xbd092a2d	-0.033487488
103	0x3d368f2a	0.044570126
104	0x3c64fde8	0.013976552
105	0xbb56632d	-0.0032712922
106	0xbcc20158	-0.023682281
107	0xbc6486cc	-0.013948154
108	0xb6286390	-2.5091904e-06
109	0x368e345b	4.2380248e-06
110	0x350b00c3	5.1782644e-07
111	0x37078780	8.078176e-06
112	0xb68b4e43	-4.1516337e-06
113	0xb68cfc08	-4.2016654e-06
114	0xb58c63dc	-1.0459876e-06
115	0x3709159b	8.170867e-06
116	0x370be536	8.338413e-06
117	0xadf97f98	-2.8364686e-11
118	0xae0c81c9	-3.1947587e-11
119	0xad0c6b6f	-7.981934e-12
120	0xada3e0d6	-1.8630802e-11
121	0xaeff7647	-1.1617068e-10
122	0xadb5ad6e	-2.0654336e-11
123	0x2f046d91	1.2044256e-10
124	0xae4fb60a	-4.7228034e-11
125	0xae7f01ab	-5.798177e-11
126	0x80059846	-5.13803e-40
127	0x00069487	6.04295e-40
128	0x0005596e	4.91259e-40
129	0x800577bb	-5.02129e-40
130	0x00058009	5.05108e-40
131	0x00056334	4.94765e-40
132	0x8005a4da	-5.18315e-40
133	0x00058807	5.07975e-40
134	0x00056ab0	4.9745e-40
135	0x3a38dd83	0.0007052051
136	0x38043872	3.152382e-05
137	0x3c4971e9	0.012295225
138	0x3a3dfd06	0.0007247481
139	0xb983e699	-0.00025158076
140	0x3c5a40e5	0.013321136
141	0x39dbe296	0.00041939755
142	0xb9517218	-0.00019974296
143	0x3c2b0477	0.010438076
144	0x00b765f6	1.6842472e-38
145	0x800b25d4	-1.02376e-39
146	0x0006b5c3	6.16217e-40
147	0x00046170	4.02296e-40
148	0x0007909f	6.94729e-40
149	0x00b366e1	1.647546e-38
150	0x00bc6ff4	1.7305234e-38
151	0x80341671	-4.783496e-39
152	0x005cbc0f	8.516328e-39
153	0xb79bb18e	-1.856012e-05
154	0xb66b0d3a	-3.5025428e-06
155	0xb70efb3d	-8.5223555e-06
156	0xb7315626	-1.057008e-05
157	0x3808e643	3.2639375e-05
158	0xb6c59224	-5.8880705e-06
159	0xb798f154	-1.823219e-05
160	0x37b20257	2.1220343e-05
161	0xb6adbcc8	-5.177779e-06
162	0x380a1d3e	3.2928998e-05
163	0xba29f279	-0.00064829696
164	0x37603c0f	1.3365424e-05
165	0x389503d1	7.1055845e-05
166	0xb82b5711	-4.0850664e-05
167	0xb840a41a	-4.59292e-05
168	0xb95c3b27	-0.00021002871
169	0x39720d80	0.00023083948
170	0xb8ac915f	-8.2286766e-05
171	0x31c66403	5.7739284e-09
172	0x318815a6	3.960582e-09
173	0x30113221	5.282193e-10
174	0x31e6a866	6.7130257e-09
175	0x31c78823	5.807139e-09
176	0x306f33fe	8.702158e-10
177	0x31ca8e1b	5.8951293e-09
178	0x31f1fec4	7.0429866e-09
179	0x2eb47801	8.206769e-11
180	0x3b9efcb2	0.004851901
181	0x3ca53db1	0.020171018
182	0x3c9069ba	0.01762854
183	0x3ca0cf70	0.019630164
184	0xbbeb8d8e	-0.0071885055
185	0xbb66b0c7	-0.0035200582
186	0x3cd04b7e	0.025426622
187	0xbd3f3d50	-0.04668933
188	0x39bf85b5	0.00036529978
189	0x3ad987a6	0.0016596213
190	0x3cf3f1de	0.029778417
191	0x3c5da5ea	0.0135283265
192	0x3c4c7d4c	0.012481045
193	0xbc0fa115	-0.008766432
194	0xbc80cf64	-0.015723892
195	0xbca47289	-0.020074146
196	0xbc583c1f	-0.013197928
197	0x3b9629c5	0.004582616
198	0xb90424ac	-0.00012602162
199	0x3a37ba33	0.0007008642
200	0x3b864c9a	0.004098487
201	0x3ab7037e	0.0013962833
202	0xbbaa37f9	-0.0051946607
203	0xbb909612	-0.004412421
204	0x39afe6e9	0.00033550643
205	0x3ae18ade	0.0017207523
206	0xbaf3c771	-0.0018598867
207	0x0005a986	5.19991e-40
208	0x80056aed	-4.97535e-40
209	0x00068b51	6.0099e-40
210	0x80061d08	-5.61427e-40
211	0x00058704	5.07612e-40
212	0x80056ef1	-4.98976e-40
213	0x8005b865	-5.25326e-40
214	0x00061432	5.58258e-40
215	0x80058293	-5.06019e-40
216	0x3beaa9c8	0.007161353
217	0x3b996461	0.0046811556
218	0x3b71bcfd	0.0036886327
219	0x3bde43ee	0.006783
220	0x3b8cd557	0.004297893
221	0x3b5c3b87	0.0033604817
222	0x3bb3f717	0.005492102
223	0x3b488407	0.0030596273
224	0x3b1915f0	0.0023359023
225	0x396eafd5	0.00022762951
226	0x3d1ba977	0.03800341
227	0x3d4a2cb5	0.049359042
228	0x3caa09f9	0.020756708
229	0x3d1780e8	0.03698817
230	0xbbd40a05	-0.006470921
231	0xbc41507a	-0.011798972
232	0xb984a73c	-0.000253016
233	0xbd2a1418	-0.04152307
234	0xbadd426e	-0.001688076
235	0xba4e7964	-0.0007876365
236	0x3a70308d	0.0009162508
237	0x3913070e	0.0001402164
238	0xb9fda7c2	-0.0004838091
239	0xbacf217a	-0.0015802823
240	0xbab87355	-0.0014072458
241	0x3a7aef1b	0.00095723727
242	0x3a9f1ac9	0.001213872
243	0x8005c7b6	-5.3082e-40
244	0x00056b2d	4.97625e-40
245	0x000685da	5.9903e-40
246	0x8005bf18	-5.27729e-40
247	0x800580d1	-5.05388e-40
248	0x0005943b	5.12353e-40
249	0x8005764d	-5.01616e-40
250	0x800583ba	-5.06432e-40
251	0x0005c8b4	5.31176e-40
252	0x8005e8c6	-5.42681e-40
253	0x80059628	-5.13043e-40
254	0x8005a525	-5.1842e-40
255	0x800633e7	-5.69632e-40

layers.2.bias f4 [64]
0	0x3d19aa21	0.037515763
1	0x3d1fce59	0.039015148
2	0x3ba37048	0.00498775
3	0xbc330ca9	-0.010928311
4	0xbccc91f9	-0.024971949
5	0xb46097f2	-2.0916903e-07
6	0x399175c2	0.00027744292
7	0x3bfc54da	0.007700545
8	0xba710ad5	-0.00091950345
9	0xbb70232d	-0.003664206
10	0xbd1f0a3c	-0.03882812
11	0xb4f55d37	-4.570263e-07
12	0x3c21b9de	0.009870974
13	0x3b86349e	0.004095628
14	0x3ba0bb51	0.0049051424
15	0xbc718c3b	-0.014742906
16	0xba282e88	-0.0006415625
17	0xb69efe38	-4.738362e-06
18	0x3cee1210	0.029061347
19	0x3d284390	0.041080058
20	0x3ba3d626	0.0049998937
21	0xbbd60e6f	-0.0065324823
22	0x3d54a81a	0.051918127
23	0xbc1b609f	-0.0094834855
24	0x3cf9dad5	0.030499855
25	0xbc97ae28	-0.018515661
26	0xbc017326	-0.007900989
27	0x3b9830f5	0.004644508
28	0xb2b929cd	-2.1555843e-08
29	0xb3e3315a	-1.0579488e-07
30	0x3ce069b3	0.027394151
31	0x3ad70684	0.001640514
32	0xbc8b1015	-0.016975442
33	0xbce95a40	-0.028485417
34	0xbcbf9071	-0.023384305
35	0xbbb6fac3	-0.0055840923
36	0x3c6b4fe6	0.014362311
37	0xbc7d3e1c	-0.015456703
38	0xbc680400	-0.01416111
39	0x3cfcf75a	0.030879665
40	0x3d0cedd7	0.03440651
41	0xb33ec568	-4.4417362e-08
42	0x3d20b331	0.03923339
43	0xb7bb2efd	-2.2314018e-05
44	0x3c784d47	0.015155143
45	0x3c6ff237	0.014645151
46	0xbb727c07	-0.0037000196
47	0xbd17539c	-0.03694497
48	0x3cdcc5d9	0.02694981
49	0xbc84930c	-0.016183399
50	0x3ad35d08	0.0016125748
51	0x3d065ebc	0.03280519
52	0xba14f933	-0.00056828855
53	0x3c88b083	0.01668573
54	0xb7e377f7	-2.7116372e-05
55	0x3d4c191b	0.04982863
56	0xb89328bc	-7.0170936e-05
57	0x3d32a058	0.043609947
58	0xb223e65a	-9.540225e-09
59	0xb899128b	-7.2990624e-05
60	0xaaa92c5d	-3.0051214e-13
61	0xbc1f66a3	-0.00972906
62	0x3a1a8197	0.0005893944
63	0x3b2c1b66	0.0026261448

layers.3.weight f4 [64, 64, 3, 3]
0	0xbcac741e	-0.021051463
1	0x3c9784f6	0.018496018
2	0x3ccf1f41	0.025283458
3	0xbd723748	-0.05913475
4	0x3adaa720	0.0016681887
5	0x3d8e3c43	0.06945088
6	0xbd851e52	-0.06499924
7	0x3c8ee101	0.017441275
8	0x3d0e901d	0.034805406
9	0xbcbeef96	-0.023307603
10	0x39f0f09b	0.00045955632
11	0x3c71702c	0.0147362165
12	0xbbf86f68	-0.00758164
13	0x3cf717ab	0.030162653
14	0xbcfc7526	-0.03081758
15	0xbb055613	-0.0020345494
16	0xbb4ebdf2	-0.0031546322
17	0x3ba63228	0.005071897
18	0xbc9fbec0	-0.019500136
19	0xbcadedd8	-0.021231577
20	0x3c6a9bbd	0.014319357
21	0xbb8c1c0c	-0.0042758044
22	0x3c5ccf7e	0.013477204
23	0x3ce5ac4b	0.028036257
24	0xbc4a226b	-0.012337307
25	0x3c85ea4d	0.016347075
26	0x3cfdb88b	0.030971786
27	0x3817c822	3.6187594e-05
28	0x37c00567	2.28907e-05
29	0x3858b44d	5.166633e-05
30	0x37c7a74a	2.3800549e-05
31	0x381e295f	3.7708665e-05
32	0x3825645d	3.9432536e-05
33	0x380b47bc	3.320699e-05
34	0x37d15c5a	2.4957746e-05
35	0x37b8c9d7	2.2028498e-05
36	0xb79c4517	-1.8628822e-05
37	0xb79d24f4	-1.8733066e-05
38	0xb766e0a0	-1.3761368e-05
39	0xb7a434ba	-1.9574876e-05
40	0xb7a74214	-1.9938721e-05
41	0xb7758fff	-1.4636665e-05
42	0xb7b3b3a6	-2.1422118e-05
43	0xb7b4b3ac	-2.1541338e-05
44	0xb78f2969	-1.7066212e-05
45	0x800558f9	-4.91095e-40
46	0x000571b1	4.99962e-40
47	0x80056577	-4.95576e-40
48	0x800559e2	-4.91421e-40
49	0x00057613	5.01535e-40
50	0x00057625	5.0156e-40
51	0x800560ca	-4.93899e-40
52	0x800562ac	-4.94574e-40
53	0x80056ffe	-4.99353e-40
54	0xb5a2f978	-1.2142546e-06
55	0x338340cb	6.1119486e-08
56	0x33dd6aec	1.03105634e-07
57	0x3272f408	1.414174e-08
58	0x3506fa80	5.0283415e-07
59	0x33c9e47e	9.4013544e-08
60	0x317c932d	3.6754486e-09
61	0x34dcb23a	4.110787e-07
62	0x33cde272	9.5872466e-08
63	0xbcadb384	-0.021203764
64	0xbad51402	-0.0016256573
65	0x3bda6d98	0.0066658966
66	0xbc1eb086	-0.009685641
67	0x3c56eb4b	0.013117622
68	0xbd263dba	-0.04058621
69	0xbc942545	-0.018084178
70	0xbc198c15	-0.009371777
71	0x3c42be94	0.011886258
72	0x00055aec	4.91794e-40
73	0x0005c1b7	5.28669e-40
74	0x8005fa8a	-5.49054e-40
75	0x000593f5	5.12254e-40
76	0x00059504	5.12634e-40
77	0x00061907	5.59991e-40
78	0x000560ca	4.93899e-40
79	0x0006ab0e	6.12376e-40
80	0x80058046	-5.05193e-40
81	0xb3206397	-3.734348e-08
82	0xb52737b2	-6.2293395e-07
83	0xb2b2127e	-2.0730337e-08
84	0xb499f694	-2.867788e-07
85	0xb48f4510	-2.6686075e-07
86	0xb50875cf	-5.083538e-07
87	0x3410591a	1.344346e-07
88	0xb3c7f05c	-9.310381e-08
89	0xb4598e12	-2.0261385e-07
90	0x3c25b4de	0.010113923
91	0xbd00cde8	-0.031446368
92	0xbcabdb31	-0.020978542
93	0x3cda6fdf	0.026664672
94	0xbcfa6fd3	-0.0305709
95	0xbc938bfa	-0.018011082
96	0x3cd0cd24	0.025488444
97	0x3c7c73be	0.015408454
98	0x3c7f9e72	0.015601741
99	0x00058b56	5.09162e-40
100	0x80069735	-6.05256e-40
101	0x8005d642	-5.36039e-40
102	0x8006554f	-5.81616e-40
103	0x00058a40	5.08772e-40
104	0x80057295	-5.00282e-40
105	0x8005aa4c	-5.20268e-40
106	0x8005b210	-5.23054e-40
107	0x8005dab5	-5.37635e-40
108	0x3a58bd0f	0.0008267918
109	0x3b1869ff	0.0023256538
110	0x3bc4094c	0.0059825536
111	0x39606169	0.00021398593
112	0xbb166144	-0.0022946158
113	0xbbb15fbe	-0.0054130247
114	0x3b80f01f	0.0039348747
115	0x3b2ecab5	0.0026671116
116	0xbb2b6585	-0.002615304
117	0x3c304b23	0.0107601015
118	0x3d21d792	0.039512224
119	0xbb9560d6	-0.004558663
120	0x3cab1da7	0.020888163
121	0x3bec4610	0.0072105005
122	0xbbc91f6b	-0.0061377785
123	0x3c11394e	0.00886376
124	0xbc8368de	-0.016041216
125	0xba8defc7	-0.0010828906
126	0x3c19e727	0.00939349
127	0xbcb98eac	-0.022651039
128	0x3d237d51	0.039914433
129	0x3c99262f	0.018694965
130	0x3c139c83	0.009009483
131	0xbc703946	-0.014662093
132	0x3d0cb01b	0.034347635
133	0xbcd29442	-0.02570546
134	0xbcdc50e3	-0.026894039
135	0x3a4b5121	0.00077559246
136	0x3a6d9d5b	0.00090642803
137	0xba8bc96d	-0.0010664888
138	0xb931f4c1	-0.00016971213
139	0xba927419	-0.0011173516
140	0x3abbdea1	0.0014333316
141	0x3b3691ef	0.002785798
142	0xbae472ca	-0.0017429229
143	0x3afde6b1	0.001937112
144	0xbd18c398	-0.037295908
145	0xbbbbdf22	-0.0057333866
146	0x3c5303b4	0.012879301
147	0xbc661a29	-0.014044323
148	0xbce0d25e	-0.02744406
149	0xbc1b15c9	-0.009465643
150	0x3befa22f	0.007313035
151	0x3c2d6f07	0.010585553
152	0xbcadb3ab	-0.021203836
153	0x0005641e	4.95093e-40
154	0x00056e24	4.98688e-40
155	0x0005762a	5.01567e-40
156	0x00056faa	4.99235e-40
157	0x0006cec2	6.25184e-40
158	0x800571d1	-5.00007e-40
159	0x000567d1	4.9642e-40
160	0x00059279	5.11722e-40
161	0x0005753e	5.01236e-40
162	0xbd180390	-0.037112772
163	0xbc4207bc	-0.011842664
164	0xbbabf032	-0.0052471394
165	0xbcd49e0e	-0.025954273
166	0x3cf3fd74	0.029783942
167	0x3d9586f8	0.07301134
168	0xbd2ed157	-0.04268011
169	0xbcea0a66	-0.028569411
170	0xbda77b30	-0.08177793
171	0xba105dbe	-0.0005507133
172	0xbbb66af0	-0.005566947
173	0x3be1331b	0.0068725473
174	0xbce74a6f	-0.028233735
175	0x3a5a028f	0.00083164213
176	0xbbe5e799	-0.007016134
177	0xbd2cf4bd	-0.042225588
178	0xbd2739f3	-0.04082675
179	0x3ba924b1	0.0051618447
180	0x3cfc6c9c	0.030813508
181	0x3ca1ef79	0.01976751
182	0x3d0c5fa4	0.034270898
183	0x3d69153c	0.056905016
184	0x3c9659d4	0.01835338
185	0x3d729ee5	0.059233565
186	0x3c7f7217	0.015591166
187	0x3d975d0e	0.07390796
188	0x3e0c3c4e	0.1369488
189	0xbc9ef960	-0.01940602
190	0x3c24c987	0.0100578135
191	0x3b90155e	0.0043970784
192	0xbcc21276	-0.023690443
193	0x3bf1f61c	0.007384075
194	0xbcd8b069	-0.026451306
195	0xbcd136f8	-0.025538906
196	0x3c35285a	0.011056984
197	0xbc805cad	-0.015669191
198	0xbd25ceae	-0.04048031
199	0x3cc91bf9	0.024549471
200	0x3c6fddf9	0.014640325
201	0xbc953fdf	-0.018218933
202	0xbb84296d	-0.0040332587
203	0x3c9bef47	0.019034995
204	0xbcdd8184	-0.027039297
205	0xbd35f420	-0.04442227
206	0xbd1b3d61	-0.037900332
207	0xbc2ca780	-0.010537982
208	0x3b9e7e30	0.00483682
209	0x3a61bf3d	0.00086115656
210	0xbba767e2	-0.0051088193
211	0xbc8b6d03	-0.017019754
212	0xbc309a4c	-0.010778975
213	0x3c12fdd4	0.00897165
214	0x3c89dfc6	0.016830336
215	0xbc50dc71	-0.01274787
216	0x3b9c3148	0.004766617
217	0x3c9222e0	0.017838895
218	0x3b4ae0e3	0.0030956797
219	0xbc8e4802	-0.01736832
220	0xbbf9908d	-0.0076161087
221	0x3bae2e2b	0.0053155622
222	0xbd1e80c8	-0.038697034
223	0x3c96596d	0.018353188
224	0x3cc53f51	0.024078043
225	0x3be56024	0.0069999862
226	0x3b9b6ff5	0.004743571
227	0xbb2ee478	-0.002668647
228	0x3c2de031	0.010612533
229	0x3bbbad08	0.005727414
230	0x3c442a5d	0.011972991
231	0x3c0bfbbb	0.008543904
232	0xbba6c3c1	-0.0050892537
233	0x3b974ca0	0.0046172887
234	0xb689a9a6	-4.102668e-06
235	0x36aa8ab2	5.082541e-06
236	0x36e45e9a	6.8059426e-06
237	0xb722e245	-9.708635e-06
238	0xb723031d	-9.716282e-06
239	0x3629bbef	2.5292354e-06
240	0xb59a3c05	-1.1491362e-06
241	0x36aff734	5.2441846e-06
242	0x36fa6784	7.4626314e-06
243	0x3888e9ca	6.528532e-05
244	0x390c0888	0.00013354619
245	0x3946e577	0.00018968234
246	0x3848d0d9	4.787822e-05
247	0x38e49457	0.00010899518
248	0x391e278a	0.00015082784
249	0x36ac7e73	5.14072e-06
250	0x3852d113	5.0262617e-05
251	0x38c6b96a	9.475912e-05
252	0x00058caa	5.09638e-40
253	0x80059ea9	-5.16094e-40
254	0x80057e77	-5.04545e-40
255	0x80058425	-5.06582e-40

layers.3.bias f4 [64]
0	0xbced8690	-0.028994828
1	0x3b25c11f	0.002529211
2	0xb3b2dfb0	-8.3294594e-08
3	0x3bb9f4a7	0.005674917
4	0xbcecf399	-0.02892475
5	0x3cd106b6	0.025515895
6	0xbccf886c	-0.025333606
7	0x3cdb8d2c	0.026800714
8	0xbac81d0e	-0.0015267448
9	0x3d2fa4a5	0.042881627
10	0x3c5ecc10	0.013598457
11	0x3c7fe741	0.0156191
12	0x3bbc622a	0.0057490068
13	0x3c93946d	0.01801511
14	0x3c5818b5	0.013189484
15	0x3c372a2e	0.01117949
16	0xbb5ec192	-0.0033989889
17	0x3c92eac2	0.017934207
18	0xbca97dcd	-0.02068987
19	0xbbe0602b	-0.0068474016
20	0x3cef813f	0.029236434
21	0x3c9f2f17	0.019431634
22	0x3ce1066c	0.027468883
23	0x3b829455	0.0039849677
24	0x3d14c811	0.03632361
25	0xbcd42dd0	-0.025900751
26	0xbbed8c4c	-0.0072493907
27	0xbb110a65	-0.002213144
28	0xbb29dbe8	-0.0025918428
29	0xbab8832f	-0.0014077182
30	0xbc415ed7	-0.011802397
31	0x3c0c83ce	0.008576347
32	0x3cb49841	0.022045257
33	0xbbe5c287	-0.007011715
34	0xbbee0c5d	-0.0072646574
35	0xbcf57cea	-0.02996679
36	0x3d24a2a5	0.040194172
37	0xbb2c7c1d	-0.0026319094
38	0xbccfea18	-0.02538018
39	0xb9de8252	-0.00042440236
40	0xb726babf	-9.937851e-06
41	0x3c6e57c1	0.014547289
42	0xbcfcd75a	-0.030864406
43	0x3ab8f842	0.0014112073
44	0xba007b52	-0.00049011887
45	0xbd173a51	-0.03692085
46	0x3cf8383c	0.030300252
47	0xbb83d123	-0.004022734
48	0x3cccd42d	0.025003517
49	0xb858b63f	-5.1668143e-05
50	0x3d0080d7	0.03137287
51	0x3cfc0378	0.030763373
52	0xbb29d48d	-0.0025914044
53	0xbca1fa03	-0.019772535
54	0xbc8f0d85	-0.017462501
55	0xbb2fe1e9	-0.0026837534
56	0xb8ec70cf	-0.00011274369
57	0xbcfcc5bb	-0.030856004
58	0xbc3259e8	-0.010885693
59	0xba9e7bc8	-0.0012091333
60	0xb69040a0	-4.2990578e-06
61	0xbcf0e40f	-0.029405622
62	0xbbc3bb46	-0.0059732525
63	0xbc025238	-0.007954173

layers.4.weight f4 [64, 64, 3, 3]
0	0xbcc039cf	-0.023465065
1	0x3b863f3c	0.0040968936
2	0xba606f45	-0.00085615023
3	0x3cc7bc3b	0.024381747
4	0x3cb240de	0.021759447
5	0x3c80bf5c	0.015716247
6	0xbca1b26c	-0.019738398
7	0x3ca4f8d8	0.02013819
8	0xbccbaff3	-0.024864173
9	0x3b2a3dec	0.002597685
10	0xbcc042da	-0.023469377
11	0xbc23c389	-0.00999535
12	0x3c4bb817	0.012434027
13	0xbc61b5ff	-0.013776301
14	0xbcb8848b	-0.022524139
15	0xbcad1a6d	-0.021130765
16	0xbc7074c0	-0.014676273
17	0xbcf417dd	-0.029796535
18	0x8005e5b7	-5.41584e-40
19	0x0006ad87	6.13263e-40
20	0x00056b17	4.97594e-40
21	0x0005c249	5.28874e-40
22	0x0005a00e	5.16594e-40
23	0x0005e71b	5.42083e-40
24	0x8005fa0e	-5.4888e-40
25	0x00064a03	5.77563e-40
26	0x80065c65	-5.84158e-40
27	0x3cc63165	0.024193475
28	0xbd9a0355	-0.07520167
29	0x3bee09bd	0.0072643445
30	0x3ce879a1	0.02837831
31	0xbc8a9c1a	-0.016920138
32	0xbcb0ed61	-0.021597566
33	0xbc820511	-0.015871556
34	0x3cfd8050	0.030944973
35	0x3cfe4b0b	0.031041643
36	0xb388384c	-6.343234e-08
37	0xb3263311	-3.869633e-08
38	0xb447653b	-1.8570147e-07
39	0xb2adfca7	-2.0254744e-08
40	0xb3391432	-4.3092037e-08
41	0xb46de19c	-2.2154421e-07
42	0xb38ad2d7	-6.464477e-08
43	0xb31c9e07	-3.6465305e-08
44	0x3413164a	1.369855e-07
45	0xbd0dfd31	-0.03466529
46	0x3ce7e95b	0.028309515
47	0xbb9f9cd9	-0.0048709926
48	0x3cb34c76	0.021887045
49	0x3cd8b431	0.02645311
50	0x3c83fb5b	0.016111067
51	0x3cbff973	0.023434376
52	0xbbadd81d	-0.0053053037
53	0x3cc6cdcc	0.024268053
54	0xa0cc574d	-3.4616715e-19
55	0x9f680ab4	-4.9136764e-20
56	0x9fe29818	-9.596634e-20
57	0x221ec426	2.1516833e-18
58	0x2272f59a	3.2927136e-18
59	0xa08affea	-2.354746e-19
60	0xa2441112	-2.657199e-18
61	0x225c7175	2.9875623e-18
62	0xa196a09f	-1.0206911e-18
63	0x3ba6ffd5	0.0050964155
64	0x3cae0c84	0.021246202
65	0xbd0ef574	-0.03490205
66	0xbd0756f6	-0.033041917
67	0x39d7b14b	0.0004114009
68	0x3d1ed621	0.038778428
69	0xbd21ab41	-0.03946996
70	0xbb0de827	-0.0021653266
71	0xbca10ae9	-0.019658523
72	0xac6b9338	-3.3477231e-12
73	0xac0f04e5	-2.032424e-12
74	0xab915401	-1.0326185e-12
75	0xad28c4f1	-9.593424e-12
76	0xaccf4f2c	-5.8920837e-12
77	0xac601815	-3.1845683e-12
78	0xadb59cd4	-2.0646963e-11
79	0xad667dc3	-1.3101911e-11
80	0xad002299	-7.28364e-12
81	0xbcd0f2d4	-0.025506414
82	0xbac743e6	-0.001520273
83	0x3cf263e0	0.02958864
84	0xbb8cc601	-0.004296065
85	0x3c90a3df	0.017656265
86	0xbcb39e6f	-0.021926133
87	0xbd1b9b0a	-0.037989654
88	0x3a8eea2e	0.0010903531
89	0xbcdb5454	-0.02677361
90	0x38b4c896	8.620431e-05
91	0xb8d894fa	-0.00010327432
92	0x380717c3	3.2208638e-05
93	0x3982a1e7	0.0002491616
94	0xb96337fa	-0.0002166926
95	0x38875c9c	6.4545515e-05
96	0x38cfffcf	9.918177e-05
97	0xb9a462b4	-0.00031354057
98	0xb8ad8168	-8.2733866e-05
99	0xbb95b370	-0.0045685098
100	0x3b5052a1	0.0031787532
101	0x3ce1f298	0.027581498
102	0xbc8393e9	-0.01606174
103	0xbd0c5e02	-0.03426934
104	0xbc64176b	-0.013921599
105	0xbd65aa91	-0.056070868
106	0x3d07675e	0.033057563
107	0x3d517754	0.05113919
108	0xbd941875	-0.07231227
109	0x3da0f7fc	0.07859799
110	0xbc301918	-0.01074817
111	0xbdd6f17a	-0.10495277
112	0x3e393005	0.18084724
113	0x3df6f39d	0.12058184
114	0xba04e112	-0.00050689385
115	0xbd855dd1	-0.06512035
116	0x3d1d3b85	0.03838684
117	0xbd002255	-0.03128274
118	0xbcc5d43c	-0.024149053
119	0xbce57504	-0.028009899
120	0xbca1b561	-0.019739809
121	0x3c334e5d	0.010943976
122	0xbd1315e4	-0.03590955
123	0xbcae818b	-0.021302005
124	0xbc63fa0a	-0.013914594
125	0xbcbca19d	-0.023026282
126	0xbd0b6764	-0.034034148
127	0xbc928be7	-0.017888976
128	0x3a818b04	0.0009883349
129	0x3c2ddd6e	0.010611875
130	0x3b612d82	0.00343594
131	0xbb2efac1	-0.0026699754
132	0x3c7eda5e	0.0155549925
133	0x3c2f3c87	0.010695583
134	0x37fc2bdd	3.0061166e-05
135	0xbce8b457	-0.028406305
136	0x3ccf6ee6	0.025321435
137	0x3ba5d5c7	0.0050608846
138	0xbcb13b18	-0.021634623
139	0x3d06a2b1	0.03287
140	0x3c0349ae	0.008013172
141	0x3c23fc28	0.010008849
142	0x3af392fd	0.0018583235
143	0x3c8031b6	0.015648704
144	0x00055863	4.90885e-40
145	0x00060731	5.53593e-40
146	0x000561ad	4.94217e-40
147	0x800560ca	-4.93899e-40
148	0x800573c4	-5.00706e-40
149	0x00056c2d	4.97984e-40
150	0x00056499	4.95265e-40
151	0x0005725b	5.002e-40
152	0x000564be	4.95317e-40
153	0xb568f87f	-8.6788344e-07
154	0xb5b44edc	-1.3433996e-06
155	0xb5fca2ba	-1.8822823e-06
156	0xb5609385	-8.366117e-07
157	0xb6154f46	-2.2248873e-06
158	0xb5800c8d	-9.540396e-07
159	0xb59404f0	-1.1028296e-06
160	0xb5191e32	-5.704088e-07
161	0xb6140fc7	-2.2062902e-06
162	0x3cb6ab87	0.022298587
163	0x3b87efc3	0.004148455
164	0xbd0b7d1c	-0.03405486
165	0xbcf806a5	-0.030276606
166	0xbbefb8da	-0.007315737
167	0x3b9cd235	0.004785801
168	0xbd16815d	-0.036744464
169	0xbc9062e9	-0.017625289
170	0x3b59b969	0.0033222085
171	0x80063211	-5.68973e-40
172	0x00056d33	4.98351e-40
173	0x8005863a	-5.07329e-40
174	0x8005f801	-5.48145e-40
175	0x00058845	5.08062e-40
176	0x0005c177	5.2858e-40
177	0x8005be09	-5.27349e-40
178	0x0005e367	5.40754e-40
179	0x800604b5	-5.52702e-40
180	0x37c71fbe	2.373743e-05
181	0xb94a3fc8	-0.00019287982
182	0xb8a94f57	-8.073326e-05
183	0xb8b89d0e	-8.8030574e-05
184	0x37d9bafa	2.5955484e-05
185	0xb88d67d7	-6.7427456e-05
186	0x388db3c0	6.756885e-05
187	0xb9128904	-0.00013974687
188	0xb97141d5	-0.00023008075
189	0xbba04f13	-0.004892239
190	0x3d6a48a3	0.057198178
191	0x3cd51bf5	0.026014308
192	0xbd1d1aae	-0.03835552
193	0x3be545eb	0.0069968603
194	0xbbc364f4	-0.0059629623
195	0x3c7cc8c0	0.015428722
196	0x3d24208b	0.040070098
197	0x3d0aa744	0.033850923
198	0xba61edf2	-0.00086185255
199	0x3b839541	0.004015595
200	0xba90321f	-0.0011001265
201	0xbc1d2d89	-0.009593376
202	0xbb9e7682	-0.0048359046
203	0xbc45df2e	-0.012077136
204	0xbc1985b5	-0.009370257
205	0xbc8ecb31	-0.017430874
206	0xbc7e3c28	-0.015517272
207	0xbd53ed48	-0.05173996
208	0x39b6a9f4	0.0003484037
209	0x3d74d3c5	0.05977227
210	0xbd3d3744	-0.046195284
211	0xbd9b7977	-0.07591527
212	0xbd34d9ad	-0.044152904
213	0xbbb3bcf5	-0.005485172
214	0x3cdb086a	0.02673741
215	0x3bff28af	0.0077868323
216	0xbceed5c8	-0.029154673
217	0xbce0c587	-0.027437938
218	0xbc027b7e	-0.007964013
219	0x3c5b8023	0.013397249
220	0x3c622c6b	0.013804535
221	0x3a8364a3	0.0010024499
222	0xbcaea15c	-0.021317177
223	0xbd00bb0d	-0.031428386
224	0xbb4c1a79	-0.0031143709
225	0x39c6f121	0.00037945158
226	0xba837f01	-0.0010032357
227	0x3a33e3c0	0.00068622455
228	0xba9517ce	-0.0011374892
229	0x3906900e	0.000128329
230	0xba307a0b	-0.0006732053
231	0xba58ff0f	-0.0008277753
232	0x39dd6aa0	0.00042231847
233	0xb6e8cd39	-6.93803e-06
234	0x349f37d4	2.9656678e-07
235	0x351dcc77	5.8784593e-07
236	0x3503a8f6	4.9047173e-07
237	0x34205b2f	1.4934334e-07
238	0x34bebde2	3.5528416e-07
239	0x34ac31ab	3.2073635e-07
240	0x3400ca69	1.1994565e-07
241	0x345cf210	2.0577158e-07
242	0x3496e368	2.8105137e-07
243	0x80056dbc	-4.98543e-40
244	0x00055cdc	4.92489e-40
245	0x80055bc8	-4.92102e-40
246	0x80057b00	-5.03302e-40
247	0x00056311	4.94716e-40
248	0x00057572	5.01309e-40
249	0x000557a2	4.90614e-40
250	0x80055edd	-4.93208e-40
251	0x00056323	4.94741e-40
252	0x800557ab	-4.90627e-40
253	0x0005a303	5.17655e-40
254	0x80057a77	-5.0311e-40
255	0x800639a0	-5.71685e-40

layers.4.bias f4 [64]
0	0x3aaf8a1f	0.0013392604
1	0xb9ed7e8a	-0.00045298442
2	0xbc4e1080	-0.012577176
3	0xb2bc2cde	-2.1906484e-08
4	0x3d219b36	0.03945466
5	0xbc514496	-0.0127727
6	0x3af728ce	0.0018856765
7	0x3c31d1b5	0.010853221
8	0xb0e10716	-1.6372919e-09
9	0x3c76e514	0.015069265
10	0xbcf578da	-0.029964853
11	0x3b64f3cc	0.0034935353
12	0xbcf1c694	-0.029513635
13	0x3bdad366	0.0066780327
14	0xbb9f72d1	-0.004865982
15	0xbcb2d547	-0.021830214
16	0x3d25c127	0.040467408
17	0xbc1e4dea	-0.009662131
18	0x3a0da1db	0.00054028415
19	0x3a4c92c3	0.00078038516
20	0xa4642b0b	-4.9476078e-17
21	0xba1615ec	-0.00057253125
22	0xbbb7cc73	-0.005609089
23	0xbbfa623c	-0.007641105
24	0x3bc339cd	0.005957818
25	0xbd10c9c7	-0.03534868
26	0xbb7ac7c6	-0.0038266047
27	0xb3d8a72a	-1.0088691e-07
28	0xb856d624	-5.122101e-05
29	0xbd055c61	-0.032558803
30	0xbc0f413f	-0.008743583
31	0xbc40823a	-0.011749798
32	0xbb64bdad	-0.0034903095
33	0xbb0ed18c	-0.002179238
34	0xb5ff04d6	-1.9000388e-06
35	0x3d1e195c	0.038598403
36	0xbc203d11	-0.009780184
37	0xbb5ca4eb	-0.0033667635
38	0x3d3508a7	0.044197705
39	0xbcb889fb	-0.022526732
40	0xbd0f8804	-0.035041824
41	0xbcc68ee2	-0.024238054
42	0x3cd829ba	0.026387084
43	0x3ccbf9e8	0.024899438
44	0x3c755215	0.014973183
45	0x3b81f514	0.003965983
46	0xbd0a5e31	-0.033781234
47	0xbc1226ef	-0.008920415
48	0xbc2637ee	-0.010145171
49	0x3c8b1c22	0.016981188
50	0x3d2dbd43	0.042416822
51	0x3bdb8691	0.006699391
52	0xbc322cbd	-0.010874924
53	0xbb50d285	-0.003186376
54	0xbb6821c2	-0.0035420512
55	0x3bb27df3	0.005447143
56	0xbc2470d2	-0.010036664
57	0x3b767562	0.0037606587
58	0xbbf579f5	-0.007491345
59	0x3ce48a54	0.027897991
60	0x3b504a0e	0.0031782421
61	0x3d1d66e7	0.038428213
62	0xbc86512f	-0.016396133
63	0x3c2a1c02	0.010382654
