best_UNetSR_model.pth (torch, 642128 bytes, 26 tensors)

enc1.conv.weight f4 [16, 3, 3, 3, 3]
000000 cb 62 b1 3d 72 50 51 3d 74 c7 c8 3d 68 31 45 3d
       0.086614214 0.05110211 0.09803668 0.04814282
000010 13 5b a5 3c a8 b9 b6 bd 38 61 b8 3d 1f dd e3 3d
       0.02018503 -0.0892213 0.09002918 0.1112616
000020 b0 dc 30 3d 66 f2 80 bd e2 0d 62 bd bc 7d 7b 3c
       0.043179214 -0.06296234 -0.05518902 0.015349802
000030 15 c5 b2 3d 8d e2 1c bd 53 a8 c8 bd 0f e2 7c bd
       0.08728997 -0.038301993 -0.0979773 -0.061739024
000040 5d 8f b0 bd 89 ec 67 3d 4a 21 15 bd d0 fd c4 bd
       -0.086210944 0.056622062 -0.0364087 -0.096187234
000050 2e c5 c9 bd be 00 93 bd 4b f8 3a bd 70 e5 1b bd
       -0.09852062 -0.07177876 -0.045646947 -0.038060606
000060 44 ed a3 3d 8c ee 76 bd 6c a5 fc 3c 92 5b 57 3d
       0.08004239 -0.06028609 0.030840598 0.052577563
000070 47 ee c4 3d 69 f3 13 3b 75 ee bb 3d 71 e3 a4 3c
       0.0961576 0.0022575504 0.091763414 0.020127984
000080 c3 d8 02 bd dc f8 11 bd 02 91 3a b9 bb b8 68 3c
       -0.031945 -0.03563772 -0.00017792362 0.014204199
000090 99 60 d7 3d 1c 7d fb 3b a2 2c a9 3d 36 cb 0c 3d
       0.105164714 0.0076748263 0.08260466 0.034373485
0000a0 c1 cb 43 3c 61 93 4f bd 76 1f f4 3b 45 00 59 3d
       0.011950434 -0.05067766 0.0074500395 0.052978773
0000b0 51 fe b2 3d 7e 12 cb bd 31 92 f7 bc 2d 14 4a 3d
       0.08739913 -0.099156365 -0.030221077 0.049335647
0000c0 cb 76 ac bd 23 c3 09 bd b3 e8 8d bd 34 07 d6 bd
       -0.084210955 -0.033633363 -0.069291495 -0.10450593
0000d0 0d 45 f2 3c 10 bc 0b bd e0 7f aa bd 68 8e b1 3c
       0.029573942 -0.034114897 -0.083251715 0.02167435
0000e0 dc 03 dd 3d 16 ff ab 3c 5a fb 41 3d f6 70 ee 3d
       0.10791752 0.020995658 0.04735885 0.11642639
0000f0 b4 53 08 3e 05 3f db bc df 4a c9 bd 17 e3 28 3d
       0.1331318 -0.026763448 -0.09828734 0.041232195
000100 f8 9b 3f 3c bf 12 13 bd ca bd 89 bd 91 74 15 bd
       0.011694901 -0.03590655 -0.067256525 -0.03648812
000110 fa 88 91 3d 70 de d3 3b 79 58 2e 3d 10 99 b4 bd
       0.07106204 0.0064657256 0.042564843 -0.08818257
000120 35 d0 a7 3d 8e 38 5b bd c5 f5 b8 bd e9 b4 53 bc
       0.08194009 -0.05352073 -0.09031252 -0.01292155
000130 06 88 9d 3d 22 8d 38 3d f6 20 a8 3c 92 1d 9a 3d
       0.0769196 0.04505647 0.02052353 0.07525171
000140 c6 df c2 bd 92 60 b1 3d 84 79 f1 3c 26 bb 90 bd
       -0.09515338 0.086609975 0.029476888 -0.07066946
000150 2b 65 79 bc 1f 4d b4 3d 35 c2 9f bd 61 ea 11 bd
       -0.015221874 0.08803772 -0.07800714 -0.03562391
000160 c5 ad 47 3d d4 da d3 3d 5b e0 a3 3d 95 60 78 bd
       0.048749704 0.103444725 0.08001777 -0.060638983
000170 06 a1 9a bd e4 ba ab ba 19 37 8f bd a8 50 a3 bd
       -0.07550244 -0.0013101962 -0.06992931 -0.07974368
000180 ca f3 bd bd 74 8c 4c bd 0a c2 82 3d 33 b4 9a 3d
       -0.09275015 -0.049938634 0.06384666 0.075539015
000190 72 9b ee 3d e3 62 10 bd b1 1c 4b 3d 79 3c d4 3c
       0.116507426 -0.035250556 0.04958791 0.025907742
0001a0 ec 0e c9 3c 3f ad a9 bd c0 f0 cd 3d 85 70 e4 3d
       0.024543248 -0.08284997 0.10055685 0.11154274
0001b0 3f 9b 72 bd 20 29 64 bd 22 f0 0c bd 60 2d f0 b9
       -0.059230085 -0.055703282 -0.034408696 -0.00045810174
0001c0 99 1a b0 bd 86 03 68 3d d9 e6 c3 3d 12 96 ee bd
       -0.08598823 0.056643985 0.09565515 -0.116497174
0001d0 a4 ba 1c 3a c2 93 fd 3b e1 43 ad 3d c1 45 a7 3c
       0.00059787394 0.0077385614 0.084602125 0.020419003
0001e0 15 9c ae 3c 53 c3 04 bd 77 d2 cd 3d cc 41 cf bd
       0.02131466 -0.03241284 0.100499086 -0.10119972
0001f0 7d 06 ec 3c fe 2a 86 bd 88 64 d9 3c ea a9 b1 3d
       0.028811688 -0.06551169 0.026537195 0.08674987
000200 0a b0 04 3e 64 96 8e 3d 07 91 c8 bd 6f b3 2b bc
       0.12957779 0.069622785 -0.09793287 -0.010479792
000210 23 e2 b7 3d 72 eb ce 3d 55 bb 50 bd 89 55 ed bb
       0.08978679 0.101035014 -0.050959904 -0.0072428626
000220 56 f6 45 bd 46 d3 c0 bd d2 9d c3 bd dd 2a 4a bd
       -0.048330627 -0.09415297 -0.09551586 -0.049357284
000230 b4 d5 2b 3d 4e 5f 8e bd 0d 3f b4 3a c5 a3 20 3d
       0.04195185 -0.06951772 0.0013751701 0.039218683
000240 bf f7 13 3d 05 9f 54 3d 80 06 8a bd 23 c6 81 3d
       0.03612494 0.051909465 -0.06739521 0.0633662
000250 fa ed 3b bd b3 3d 36 bd ae ec 42 bd 38 a5 34 bd
       -0.04588125 -0.044492435 -0.047588997 -0.044102877
000260 70 d8 a0 3d b3 33 e5 3d 08 24 7a 3d 7e 77 64 bd
       0.07853782 0.111915015 0.06106952 -0.05577802
000270 83 99 0d 3b c0 7a 36 3d 7e c4 6d bd 3f 2f d5 bc
       0.0021606393 0.044550657 -0.058048718 -0.026023505
000280 5a 3a 3b 3d 52 fe f0 3d 0a 3e c1 3d 84 ec e6 3b
       0.045709945 0.11767258 0.09435661 0.007047238
000290 3c 98 79 3d 99 37 27 3d 27 08 a9 3d ff ba ad bd
       0.060936198 0.040824506 0.08253508 -0.08482932
0002a0 49 4c 31 3d 24 d8 94 bd c5 20 3a bc ba 52 e8 3d
       0.04328564 -0.07267788 -0.011360352 0.11343904
0002b0 d4 bd 1d 3c 0f cc a2 3d c7 70 60 3d 87 40 4f 3d
       0.009627778 0.07949077 0.054795053 0.050598647
0002c0 29 c3 92 3d 0e 5d b0 3c 5e a5 03 3c b9 69 e1 3d
       0.0716613 0.021528747 0.008035032 0.11006493
0002d0 f3 e9 44 3d 71 aa 1e bc e5 a9 79 bd 45 5a 67 3d
       0.048074674 -0.009684191 -0.06095304 0.056482572
0002e0 5e c2 3c 3d cc c2 4d 3d eb 9b b3 39 02 ff b6 bd
       0.0460838 0.0502346 0.00034257708 -0.08935358
0002f0 38 e2 e8 3b f7 0a f0 bc e0 ea 8e 3d ab 64 e0 bc
       0.0071070455 -0.029302103 0.069783926 -0.027391752
000300 d5 ca 0c 3d 70 c2 3b bd ca e2 8a bd 38 50 3f bd
       0.034373123 -0.045839727 -0.06781538 -0.046707362
000310 d4 e1 9c 3d 4f 52 df bc 61 40 a4 3c 4b 1b c9 3d
       0.07660261 -0.027260927 0.02005023 0.09819659
000320 c1 d8 16 3d 43 18 f1 bc 63 7a ee 3b c7 33 7d 3d
       0.036827806 -0.029430514 0.007277773 0.061816957
000330 ac 3c 12 bd 7d d3 0f 3b 57 f0 ca 3d 76 94 df 3c
       -0.035702392 0.0021946125 0.099091224 0.027292471
000340 e6 5e 67 3d 6f 91 c4 3c 0a 32 97 bd 92 6d 5b bd
       0.056486987 0.02399513 -0.07382591 -0.05357129
000350 f6 34 30 3d 75 b5 44 bd 49 14 d3 3d 2a 07 f7 3c
       0.043019257 -0.048024613 0.103066035 0.030154783
000360 09 fd 55 bd 9f 08 a4 3d 3a 0d f2 bc 53 68 d6 bc
       -0.052243266 0.08009457 -0.029547323 -0.026172793
000370 65 50 bd bd fd 3e 8e bd 36 df 94 bd 66 cc 14 3d
       -0.0924385 -0.06945608 -0.072691366 0.036327742
000380 75 d5 96 37 f9 7e 7d 3d 51 86 74 bc 89 28 a1 3c
       1.7980792e-05 0.06188867 -0.014924602 0.019672649
000390 e9 6c 07 3e 58 94 cf bc 00 e2 a6 3d b6 15 38 bc
       0.1322514 -0.02533929 0.08148575 -0.011235645
0003a0 45 94 f8 3c 6b f9 a6 3d 68 23 ce 3d 98 01 b9 bd
       0.030344138 0.081530415 0.10065347 -0.09033507
0003b0 1b 5d 35 bd 90 0b 96 3d c6 2c 4a 3d b1 8d 09 bd
       -0.044278245 0.07326424 0.049359106 -0.033582393
0003c0 1f 94 7b bd 50 ee 3a 3b ca 12 99 3d 83 aa a4 bd
       -0.061420556 0.0028523393 0.07474287 -0.08040335
0003d0 5a f3 63 bd 9f 50 8d 3d 89 87 cb bc f9 bc 15 bd
       -0.055652 0.06900143 -0.024844902 -0.03655717
0003e0 eb a2 a3 bd 83 52 09 bd f0 51 01 bd ca ed c9 bc
       -0.079900585 -0.033525955 -0.031572282 -0.02464952
0003f0 91 ae b3 3c 5d 03 31 bc 34 e0 60 3d 91 10 c1 3d
       0.021933826 -0.0108040245 0.054901317 0.09426988

enc1.conv.bias f4 [16]
000000 74 bd 85 3d ac cf 96 3d 73 e9 01 3d 80 ca c6 bc
       0.06530276 0.07363829 0.031716775 -0.024266481
000010 58 5f 2e 3d 56 fb c5 3d a8 b8 29 bd 61 92 15 bd
       0.042571396 0.09667079 -0.041435868 -0.03651655
000020 5f fe bd 3d 2b 7f b0 bd fb 1b c5 bd 68 ed 9a bd
       0.09277033 -0.08618005 -0.096244775 -0.07564813
000030 44 28 0e 3d f1 23 b6 3c ee 4e ba 3d c1 7e 8d 3d
       0.03470637 0.022233935 0.09097086 0.06908942

enc1.bn.weight f4 [16]
000000 0e 88 7f 3f 89 61 7d 3f 78 60 78 3f af bb 7b 3f
       0.9981698 0.9897695 0.970222 0.9833326
000010 84 98 7d 3f b8 9b 7d 3f 2f 55 7d 3f e4 bc 7d 3f
       0.99060845 0.9906573 0.98958105 0.9911635
000020 65 d5 7c 3f de cb 7e 3f 29 0a 7e 3f 1d 1a 7d 3f
       0.98763114 0.99529827 0.99234253 0.9886797
000030 7c 63 7b 3f 8e df 7c 3f 1c c3 7e 3f 61 35 7b 3f
       0.98198676 0.9877862 0.99516463 0.98128325

enc1.bn.bias f4 [16]
000000 a7 bd 23 bb 0b 44 59 ba 8e c9 ec 39 a7 cf 96 3b
       -0.0024984868 -0.0008288032 0.00045163598 0.004602391
000010 53 2c a1 3b 3d 99 d5 3a 02 65 52 ba 8a 9e 1c bc
       0.004918614 0.0016296279 -0.00080259156 -0.009559283
000020 d9 d3 02 bc 4b a6 3f ba d9 32 a2 ba 0b f5 48 bb
       -0.007985079 -0.00073108514 -0.0012374773 -0.0030663635
000030 01 25 fa ba 2a 31 3e ba ee ec 14 3b fc 46 ac bb
       -0.0019084514 -0.0007255251 0.002272423 -0.0052574854

enc1.bn.running_mean f4 [16]
000000 92 72 a4 3d fb f3 45 3e 29 48 f8 3e 90 16 e7 bd
       0.08029665 0.19331352 0.48492554 -0.112836
000010 4b 46 66 3d 4d 2a ff 3e 1f 23 4c 3e 5d a4 d8 be
       0.05621938 0.4983696 0.19935273 -0.423129
000020 51 8c 4f 3d 10 19 a4 be a8 b8 e9 be 73 a6 d6 be
       0.050670926 -0.3205037 -0.45648694 -0.41923866
000030 00 b7 29 ba 3d 2f 58 3e 9f 86 a3 3e 8e e2 88 3e
       -0.00064741075 0.2111177 0.31938645 0.26735348

enc1.bn.running_var f4 [16]
000000 c6 bf 8c 3d f3 c7 8a 3d 3a ca 86 3c 40 de fb 3c
       0.068725154 0.067764185 0.016453851 0.030745625
000010 34 a6 79 3d ef bf cb 3c cb 3c 5e 3d 60 63 76 3d
       0.06094952 0.024871795 0.054257195 0.060153365
000020 7a e3 11 3d f1 79 50 3d 58 c1 2c 3d db c7 1e 3d
       0.03561733 0.050897542 0.042176574 0.038764816
000030 dd cd f8 3c c9 d9 84 3d 75 a0 13 3d 65 a3 4c 3d
       0.0303716 0.06486852 0.036041696 0.049960513

enc2.conv.weight f4 [32, 16, 3, 3, 3]
000000 32 b8 51 bc 8d 7c 20 3c 5c c8 0f bd b9 3f 34 b9
       -0.012800263 0.00979532 -0.035103187 -0.00017189876
000010 ab 00 3d 3d d6 54 08 bc 47 a7 0d 3d 6d 87 35 bd
       0.046143215 -0.008321008 0.034583356 -0.044318605
000020 6b 15 1a 3d 3c f3 94 bb 06 bd a4 3c 70 ae 48 3c
       0.037618082 -0.0045455974 0.020109665 0.01224862
000030 3d cd 52 3b 4f 85 86 3c aa 02 9b bb b9 62 9e ba
       0.0032165789 0.016420988 -0.004730542 -0.0012083865
000040 30 a0 2b 3d 98 d7 c1 3b fd 3e ae 3c 19 93 44 bc
       0.041900814 0.0059155934 0.02127027 -0.011997961
000050 cd 9b 77 3b 77 9c d2 bc 07 45 c4 3b 0d d9 13 3d
       0.0037782073 -0.025709374 0.005989674 0.036095668
000060 7c 84 80 3b ea af d5 3c 05 0c c9 ba 13 11 d5 3c
       0.0039220434 0.026084859 -0.0015338665 0.026009118
000070 91 02 60 bb 72 bf 94 bc 0d d7 c1 3b 4b 5d 1c bd
       -0.0034181217 -0.018157694 0.0059155286 -0.03817491
000080 87 c4 72 3c dc ae 0e bd 14 8d a9 3c 1b d5 c3 3c
       0.014817364 -0.034834728 0.020697154 0.023905328
000090 21 28 87 3c ba e8 20 3d f6 7f e0 3c ee e0 cf bb
       0.016498627 0.039284445 0.027404767 -0.0063439524
0000a0 73 a3 a0 bc 3a 42 c6 3c 6f 17 26 bd 85 d0 32 bd
       -0.019609189 0.024201501 -0.04054969 -0.04365589
0000b0 14 9a 0d bd 73 6f a0 bc 81 02 03 3d b4 21 8a 3c
       -0.03457077 -0.019584393 0.03198481 0.016861774
0000c0 6b 1d 03 bd a5 e9 38 bd c3 3a f4 bc c2 4a ef 3a
       -0.032010477 -0.045144696 -0.029813176 0.0018256532
0000d0 26 f8 5e bc 92 dc 01 3d 87 eb df 3c 8c 59 bf bc
       -0.013608968 0.031704493 0.027333988 -0.023358129
0000e0 73 01 21 bd 38 8c 85 bc ca 59 b8 bc 37 09 12 bd
       -0.039308023 -0.016302213 -0.022503752 -0.03565332
0000f0 0f 84 64 3c 91 06 95 bb a1 be 38 3d 57 3e 30 bd
       0.013947501 -0.004547902 0.045103673 -0.043028202
000100 96 a8 40 bc df 6b 17 3d ea b3 1a 3d 75 c3 6d bb
       -0.011758944 0.03696811 0.037769236 -0.0036279832
000110 9b 01 8f 3c c4 9d d5 bc 8e f9 20 bd cd dd 34 3d
       0.01745682 -0.026076205 -0.039300494 0.04415684
000120 d8 b6 29 bd 18 63 bd bc 50 6b d1 bc ee a5 94 3c
       -0.04143414 -0.02311854 -0.025563866 0.018145528
000130 36 2a 95 bc 38 5b 9a 3c df 01 85 3c 04 69 58 3b
       -0.018208604 0.018842325 0.016236244 0.0033021579
000140 96 46 f1 ba fb 50 fa bc 79 e0 0c 3c fd b2 0d bc
       -0.0018407877 -0.030556193 0.00859844 -0.008648631
000150 19 e0 3f 3b 3e 09 57 bd a3 96 8d 3c 09 79 56 3d
       0.002927786 -0.05249905 0.017283743 0.052361522
000160 e9 79 b5 bb 6e 3e f7 39 44 c4 33 3d 09 64 95 bc
       -0.0055382145 0.00047158025 0.043888345 -0.018236177
000170 ef 30 0b 3c b6 56 63 bc 9e a6 1e 3c 24 c8 36 bd
       0.008495553 -0.013875654 0.009683279 -0.044624463
000180 2d 35 31 bd c6 f4 b8 bb 13 96 2b bd 07 2e bf bb
       -0.043263603 -0.0056444136 -0.04189117 -0.0058343443
000190 33 4c f0 3c 48 db 3e 3d 70 bc 15 bc 79 ac 43 3d
       0.02933321 0.04659584 -0.009139165 0.047771905
0001a0 11 8e 15 3d 37 f8 7e 3a d3 1f 3e 3d 24 24 db bc
       0.03651244 0.0009726318 0.04641707 -0.026750632
0001b0 2c c6 84 3c 82 98 e6 bc a1 03 a2 3c 9f 73 c7 3c
       0.016207777 -0.028148893 0.019777121 0.024347125
0001c0 04 9e bd 3c 6f e0 f1 bc 45 fe 03 bd eb 3d 8c bb
       0.023146637 -0.029525964 -0.032224912 -0.004279842
0001d0 95 63 94 bc 38 8a f3 bc 90 ea b7 bc f8 dd 4a 3c
       -0.01811389 -0.029728994 -0.022450715 0.012382023
0001e0 27 aa ad bc d7 b0 a0 3c 03 fc 8b 3c b7 58 0a bd
       -0.021199299 0.019615574 0.017087942 -0.03377601
0001f0 ee 2e 1d 3d 06 74 25 ba f1 d3 1a bd 9e 2b a2 3c
       0.038374834 -0.00063115393 -0.03779978 0.019796189
000200 fc 51 47 3d e1 0c 81 bc 05 4e e8 bc f7 20 21 3d
       0.04866217 -0.015753211 -0.028357515 0.03933808
000210 36 88 7c bc 25 c4 53 bc 6c 75 21 bc 66 d8 cb 3c
       -0.015413335 -0.0129251825 -0.009854656 0.02488346
000220 0e 6e 11 3d 6e bb 25 3c e9 a2 1e bd ca f7 d6 bc
       0.035505347 0.0101154875 -0.038729582 -0.026241202
000230 77 bc a6 3c 62 bc 59 3c 45 70 1d 3b fe e8 04 3d
       0.020353539 0.013289543 0.0024023217 0.03244876
000240 41 05 9e 3b bc 0d 08 bd 7e 33 0a 3d 9d f5 7f 3c
       0.0048224037 -0.033216223 0.033740513 0.015622524
000250 de 32 02 bc ec 06 20 3d 54 bb 33 bd 95 ae 40 3c
       -0.007946698 0.0390691 -0.043879822 0.011760374
000260 49 c8 87 bc 92 40 1d 3d e1 06 ee ba 73 ed da bc
       -0.016574996 0.038391657 -0.0018160009 -0.026724553
000270 59 c8 09 3d ea 09 27 bc 3e 2f 20 bd 4b 46 37 3c
       0.033638332 -0.010195235 -0.039107554 0.011186193
000280 21 f9 7e 3c e1 53 23 bd 60 a1 6c bc d9 b7 94 3c
       0.015562327 -0.039874915 -0.014442772 0.018154072
000290 14 ce 40 3c 87 67 34 bd 2b db 3c bb 20 e6 58 bb
       0.011767883 -0.044044044 -0.0028817158 -0.003309615
0002a0 36 5c 48 bd 38 83 b9 bc 05 11 fa bc 11 13 1c 3d
       -0.048916064 -0.022645578 -0.030525694 0.03810412
0002b0 56 9a 34 3d 80 a1 0a 3d ce ea 1b 3d 84 1b 0e bd
       0.0440925 0.033845425 0.038065724 -0.03469421
0002c0 8a 32 15 3c b6 ec 95 3c 37 b2 31 bc a4 98 41 3a
       0.009106288 0.01830135 -0.010845712 0.0007385111
0002d0 5c 98 8d 3c c9 36 11 bd b7 70 3a bd f7 a4 d3 3c
       0.017284565 -0.035452638 -0.04551765 0.025835497
0002e0 82 5c fa 3c 7b ac a7 bc 90 56 4d bd 24 d2 f1 3c
       0.03056169 -0.020467987 -0.05013138 0.029519148
0002f0 1f 91 46 3c 0c 2d 09 bd 34 f0 3c bd c7 8c de bc
       0.0121195605 -0.033490226 -0.046127513 -0.027166737
000300 13 6a 31 bb 9c 8e 28 bd bb ac 2d bd b6 22 63 bc
       -0.0027071282 -0.041151628 -0.042401057 -0.013863256
000310 f9 b8 fd 3b 2e b4 4e 3d a4 78 8c 3c 91 95 a3 ba
       0.0077429977 0.0504648 0.01714737 -0.0012480487
000320 41 38 3f bd 9d 20 0a 3c 40 a5 91 bc 5e 7c 16 bd
       -0.046684507 0.008430627 -0.017778993 -0.0367397
000330 e3 71 c5 3b 78 89 1e bc 12 bf 98 bc 6c dd ec bc
       0.0060255392 -0.00967633 -0.018645797 -0.028914176
000340 32 7a 21 bd 9d 81 d9 3c 29 eb a9 bc d1 bb 04 3d
       -0.039423175 0.026551062 -0.020742016 0.03240568
000350 bc a2 31 bd cf 71 76 bc a7 27 00 3d 5f c6 42 3c
       -0.043368086 -0.0150417825 0.031287815 0.011888116
000360 84 9c 3f 3d 3e e9 81 bc 16 aa f7 bb d2 8a 23 bd
       0.046780124 -0.015858289 -0.0075581176 -0.03992731
000370 b7 1b ea bc f4 5f 25 bd 71 18 d4 bc 7e 5d 01 3b
       -0.028577669 -0.04037471 -0.02589056 0.0019739564
000380 00 5e 66 3a 60 5b 3c bd a5 90 c1 3b 95 05 f9 bc
       0.0008787811 -0.04598558 0.0059071355 -0.03039817
000390 0d 8f 82 bc 8e 7a e1 bc b2 ef 1f bc b9 8a 3e bd
       -0.015937353 -0.027524259 -0.009761738 -0.046519015
0003a0 00 46 1b 3d a8 84 ee 3c 6d be 00 3d 74 dd 16 bd
       0.037908554 0.02911599 0.031431604 -0.036832288
0003b0 b5 d5 a0 3b b9 97 18 bd ea 63 90 3c c5 78 08 3b
       0.0049082884 -0.03725407 0.017625768 0.0020823937
0003c0 8c 56 1e bd 49 6d e2 bb 2e cc 3f 3d 9a dc 09 bd
       -0.038656756 -0.0069100005 0.04682558 -0.033657648
0003d0 76 b0 ae bc 1e 91 97 3c 22 af 89 3c 33 75 11 3d
       -0.021324378 0.018501814 0.016807143 0.03551216
0003e0 d0 fc 1f 3d bc 6b 3b 3c 97 df 29 3b 04 d2 c9 3c
       0.03905946 0.01143926 0.0025920623 0.024636276
0003f0 d6 f1 11 3d c5 d6 80 bc 43 0c 96 3b 7f c5 08 bd
       0.035631023 -0.01572741 0.0045790984 -0.033391472

enc2.conv.bias f4 [32]
000000 08 c7 21 bd a0 50 be 3c 6d 9b af bb 8f ac 04 bd
       -0.03949645 0.023231804 -0.0053591044 -0.032391127
000010 e0 10 60 bc 50 d9 c0 3c 38 fa 1d 3d 7c c6 f8 bb
       -0.013675898 0.023541123 0.038568705 -0.0075920206
000020 91 27 17 bd 17 6c b9 3c 57 19 74 3c f5 ae 2c bd
       -0.036902968 0.022634549 0.01489862 -0.04215904
000030 dc 3b c2 bc 92 94 44 3c e2 7a 0d bd f9 72 09 bd
       -0.023710184 0.011998313 -0.03454102 -0.033556912
000040 94 e7 d3 3c d6 16 e7 3a b7 f6 11 3d 35 ff 89 bc
       0.025867261 0.0017630707 0.035635676 -0.016845325
000050 63 18 32 3c 80 4c 16 bd 3f 1c 2f 3c 25 32 b2 bc
       0.010870072 -0.03669405 0.010687887 -0.021752426
000060 17 cc 42 bd b6 92 29 3d 91 ac be 3b 86 22 41 bb
       -0.047557916 0.04139968 0.0058189114 -0.002947004
000070 73 45 e8 3c c9 34 11 bd aa d8 46 bc 95 c6 ef 3c
       0.028353428 -0.03545073 -0.012136618 0.029269496

enc2.bn.weight f4 [32]
000000 32 03 81 3f d0 27 80 3f 9d e4 80 3f 9f 7e 80 3f
       1.00791 1.001215 1.0069767 1.0038642
000010 5d 66 7f 3f 28 d4 80 3f a4 9d 80 3f a1 26 81 3f
       0.9976557 1.0064745 1.0048108 1.0089914
000020 65 e5 81 3f 4d 6c 80 3f c5 fb 81 3f 2d e2 7f 3f
       1.0148131 1.0033051 1.0154959 0.9995449
000030 74 05 80 3f 1a 15 81 3f f4 4f 7f 3f d3 83 80 3f
       1.0001664 1.0084565 0.99731374 1.004023
000040 d8 82 80 3f 25 01 80 3f bc 1c 80 3f fb 2b 80 3f
       1.003993 1.0000349 1.0008769 1.0013422
000050 1d 27 7f 3f 03 3a 7c 3f d7 54 7f 3f 78 70 80 3f
       0.9966906 0.9852602 0.9973883 1.0034323
000060 36 f5 7f 3f 65 0d 80 3f 22 3b 80 3f 53 bc 7d 3f
       0.9998354 1.0004088 1.0018046 0.99115485
000070 93 bc 80 3f f4 09 81 3f 5d 5a 80 3f d8 2f 80 3f
       1.0057548 1.0081162 1.0027577 1.0014601

enc2.bn.bias f4 [32]
000000 3a 52 ae 3b d2 31 11 3b db c6 cc 3b 0c f2 06 3c
       0.0053198608 0.002215494 0.0062492914 0.008236419
000010 aa 48 c8 3a 56 75 16 3c 6c 66 ed 3b 74 34 bc 3b
       0.0015280445 0.0091832485 0.0072448757 0.0057435576
000020 2c bc 61 3c c1 8c c1 3b fb 73 61 3c 6a 6b ac 3a
       0.013777774 0.0059066718 0.013760562 0.001315457
000030 77 37 5b 3a a5 bf db 3b 97 ba 82 3b 25 73 82 3b
       0.0008362452 0.0067061954 0.0039895284 0.0039810115
000040 0c 91 b6 3b 3f b7 44 3b 9a 77 8e 3b 60 76 2d 3b
       0.00557149 0.003001645 0.0043477537 0.0026468262
000050 84 0f 2c bb be 2b a3 bb 8a cd 6d 39 f7 ed ac 3b
       -0.0026254365 -0.0049795797 0.0002267865 0.005277391
000060 58 33 88 3a dd de 29 39 0f e5 86 3b a7 43 2d bb
       0.0010391278 0.00016200119 0.0041166614 -0.002643803
000070 7b 34 8c 3b af 87 87 3b 6d c4 2a 3b f6 a8 e5 3b
       0.004278717 0.004136048 0.002605702 0.007008667

enc2.bn.running_mean f4 [32]
000000 6f 7f 1d be e1 17 e2 3e fb ec af 3e bf c7 55 be
       -0.15380643 0.44158843 0.3436049 -0.20876978
000010 cc e6 db 3e 62 df 04 3e c0 6d 6b be 9e a7 3f be
       0.42949522 0.12975839 -0.22991085 -0.18716285
000020 96 1e 38 be 85 3c c3 be ba 05 6c bb ae 02 c2 3e
       -0.17980418 -0.3813211 -0.0036014155 0.3789267
000030 19 4d 52 3e a1 0a 49 3d d4 b8 38 3d 73 6e e2 3e
       0.20537223 0.049082402 0.04509814 0.4422489
000040 f4 2e 62 3e 2e f0 57 3e fc 17 ab 3d 94 32 b2 3c
       0.22088224 0.21087715 0.08354184 0.021752633
000050 08 98 81 3e df 10 d5 be 3e e2 d6 bc 94 86 ce be
       0.25311303 -0.41614434 -0.026230928 -0.4033705
000060 b8 d6 31 bd 9d be f3 3e 21 07 1f bc a9 ae 91 be
       -0.043417662 0.47606364 -0.0097062895 -0.28453568
000070 26 b3 a6 3e f0 5d 83 be e4 15 ad 3e 0c ba 6e 3e
       0.32558554 -0.25657606 0.33805764 0.23313159

enc2.bn.running_var f4 [32]
000000 5e 92 5f 3d 8a 6c 48 3e f7 f6 d4 3d 84 d6 81 3e
       0.054582946 0.19572654 0.10398667 0.25358975
000010 0a f1 d9 3d 72 a7 9b 3d 25 4a c0 3d 24 1d f1 3d
       0.10641678 0.07600297 0.09389142 0.11773136
000020 c4 af e6 3d 28 18 69 3e e7 64 13 3e eb 12 fa 3d
       0.112639934 0.22763121 0.1439396 0.122106396
000030 34 57 3a 3e 1d 3e b2 3d 0c d9 ac 3d e3 8e 6f 3e
       0.18197328 0.087032534 0.08439836 0.2339435
000040 8c d2 16 3e 7c 36 a4 3d 7c cc 88 3e 0e d6 06 3e
       0.14728755 0.080182046 0.2671851 0.13167593
000050 d8 d4 9c 3d 75 49 06 3e 87 fc b4 3d a9 5f df 3d
       0.07657784 0.13113959 0.08837228 0.109069176
000060 8a ea c4 3d 4e 1b aa 3e a6 72 5e 3d ca fd 08 3e
       0.09615047 0.33223957 0.054308556 0.13378063
000070 67 1d c6 3d 64 f6 01 3e 1e f0 de 3d 39 fe 9b 3d
       0.09673577 0.12691647 0.108856425 0.076168485

enc3.conv.weight f4 [64, 32, 3, 3, 3]
000000 0e 43 4a 3c b8 9f ca bb a5 34 90 3c 1a 16 c4 bc
       0.012345089 -0.0061835907 0.017603228 -0.02393632
000010 67 c0 c8 3c 3f 22 e5 bc a4 87 86 bc ec ac 04 3d
       0.024505807 -0.027970431 -0.0164221 0.032391474
000020 7e 47 b9 bc 10 50 d3 3c b9 a5 8e 3c 66 c2 b6 3c
       -0.022617098 0.025795013 0.017413007 0.022309493
000030 a8 63 d0 ba b3 36 c6 3c 2c 6c 44 ba 4c 08 13 bd
       -0.001589884 0.024196004 -0.00074929255 -0.035896584
000040 d1 07 8b 3c 55 e4 ca 3c ff e6 a4 3c eb 4e 1c 3b
       0.0169715 0.02476708 0.020129679 0.002385075
000050 02 92 10 3c b0 c5 b3 bc 3b e3 ec 3c af b1 ed bc
       0.0088238735 -0.02194485 0.028916946 -0.02901539
000060 23 e2 47 bc c5 ac 92 3c e7 5a 85 bc a4 61 8b 3c
       -0.012199911 0.017904649 -0.016278697 0.017014332
000070 d2 ec 57 bb ef c4 35 bb c4 3e 54 bb f1 1d 29 3c
       -0.0032947552 -0.002773579 -0.0032386044 0.01032208
000080 c5 c3 e6 3c 45 af 7e bc d7 82 75 bc cc 79 f0 3c
       0.028169522 -0.015544717 -0.014984808 0.029354952
000090 09 4b e8 bb d3 ad 22 3c e9 2f fe bc eb 32 d2 bb
       -0.007089023 0.009929138 -0.031028705 -0.0064147613
0000a0 9f cf e8 bc 29 bc d0 bc ed bc 61 ba 9c 22 a1 3c
       -0.028419314 -0.025480347 -0.0008611221 0.019669823
0000b0 4a 1f b4 3c e1 00 02 3b 3b e7 0e bb 45 67 0d 3d
       0.021987576 0.001983695 -0.0021805305 0.034522314
0000c0 78 a5 b5 bc 2d 5f fe bb e4 8c 02 3c cd 46 6e 3c
       -0.022173628 -0.0077628107 0.007968161 0.014543247
0000d0 22 62 bc 3c 7f 08 62 bc 26 b5 48 bc 81 3a 42 bb
       0.022996012 -0.013795971 -0.01225022 -0.0029636922
0000e0 e4 8f 6a 3c 70 8a f3 bc ff 8c ed 3b f7 08 32 3c
       0.014316533 -0.029729098 0.007249474 0.010866395
0000f0 fb fe 0b bd 0a 1d fb 3c ee 86 49 bc 08 8a e4 3c
       -0.034178715 0.030653495 -0.012300236 0.02789785
000100 d7 12 c0 bc 38 01 2a bb 63 1a e2 bc 76 f0 3a 3c
       -0.023446484 -0.0025940668 -0.027600473 0.011409869
000110 1e ca 08 3d 97 43 d6 3a 82 aa ae bb d4 51 00 3d
       0.03339588 0.0016347048 -0.0053303847 0.031328037
000120 fe 7e 99 3c a9 85 03 bc f1 16 b9 bc d8 f6 ce bb
       0.018737312 -0.0080274725 -0.022593947 -0.006316047
000130 18 07 b6 bc 48 a6 4d 3c 34 90 02 3d 67 d2 20 3c
       -0.02222018 0.012551852 0.031875804 0.009815789
000140 de 59 2b bb 66 16 2d bc 2a 35 ee b7 44 c6 19 3c
       -0.0026146094 -0.010564422 -2.8396567e-05 0.009385649
000150 7d 08 da 3b ab 89 cf bc ff 37 3a 3c a0 f1 82 bc
       0.006653844 -0.0253342 0.01136589 -0.015984356
000160 f4 c4 56 bc b3 92 5a 3c de 8b 40 bc df 22 b3 bb
       -0.013108481 0.01334064 -0.011752097 -0.0054668034
000170 61 f3 47 3c d8 54 cf 3c 03 5a b6 bc f6 00 24 3b
       0.012204022 0.025309011 -0.022259718 0.0025024987
000180 01 ac 96 bc 0f 7c 51 bc 0e e0 a9 3c 17 42 01 3d
       -0.018392565 -0.0127859255 0.02073672 0.03155717
000190 13 79 c4 bc 60 87 12 3d 83 38 ee 3a 75 4d 27 3c
       -0.023983514 0.035773635 0.0018174801 0.010211338
0001a0 28 19 f9 bc b9 cb 3e bc 86 2c a6 3c 4b 96 99 3c
       -0.030407503 -0.011645251 0.020284902 0.018748423
0001b0 29 2b be 3b 53 9e 99 3a d5 71 a2 bc 62 5c e9 3a
       0.005803485 0.0011720158 -0.01982967 0.0017804021
0001c0 0f 4f dd 3b 48 f1 cb bc db 76 c8 3c 9e 2a af bc
       0.0067538093 -0.024895325 0.024470737 -0.021382626
0001d0 7d 21 ae bb 0b d7 a9 3c a4 3b 96 3c 75 84 ca bb
       -0.0053140507 0.020732423 0.018338986 -0.006180341
0001e0 cc 87 5e bc b2 78 1e 3a a1 5c 44 bc 75 e4 ca bc
       -0.013582181 0.00060452067 -0.011984975 -0.02476714
0001f0 dc 3d 18 bd 9d 51 1a 39 97 02 fe 3c 4f ea 8f 3b
       -0.03716837 0.00014716988 0.031007094 0.0043919454
000200 c0 17 06 3d 36 1b 8d bc 96 6d 56 bc de e4 f4 bc
       0.032737494 -0.01722489 -0.013087651 -0.029894289
000210 62 72 f8 3c 9c 5e e8 3c 29 e2 bd 3b a5 10 90 bc
       0.03032798 0.028365426 0.0057947827 -0.017586062
000220 42 8c fc 3c a2 03 64 3c 20 4f 3a bc ca b8 d0 3c
       0.030828599 0.013916882 -0.011371404 0.02547874
000230 ba 2c e8 3c 2d 69 74 3b 17 f0 fa 3c b4 ed 86 ba
       0.02834164 0.0037294135 0.030632062 -0.001029423
000240 5d aa 21 bb e5 4f 4b 3c e1 06 50 3c 93 2d e6 3c
       -0.0024668195 0.012409185 0.012696953 0.028097903
000250 fe 5f ac 3c 79 be 07 3c 7a c7 0b 3c f1 33 e2 bc
       0.021041866 0.008285158 0.008531446 -0.027612658
000260 87 ed 83 3c 77 51 88 bb 98 ce ef 3b 91 f4 e2 bc
       0.016104473 -0.004160102 0.007318329 -0.027704509
000270 b1 27 b7 bc 01 d5 81 3c fb 89 ce 3c cf 49 a9 3c
       -0.022357794 0.015848638 0.025212279 0.020665077
000280 fa b8 77 3b 1c 81 c2 3c d9 0d 90 bc a5 3f d2 3c
       0.0037799464 0.023743205 -0.017584728 0.025665114
000290 8c bd 06 bd e3 f6 8c 3b 59 df 0e bd 75 09 ca ba
       -0.03289561 0.004301892 -0.03488097 -0.0015414195
0002a0 22 c4 0c 3d 6b 51 76 bc 1b a2 87 bc b8 9f be bc
       0.034366734 -0.01503406 -0.01655679 -0.02326952
0002b0 ca d4 d9 bc 06 1a ac 3a 8b be 81 3c 70 7e fc bb
       -0.026590724 0.0013130314 0.015837928 -0.007705502
0002c0 90 2c 63 3c ea b0 ae 3c 3b d2 ad bc 1a 7a 75 ba
       0.013865605 0.021324594 -0.02121841 -0.0009364203
0002d0 96 8b 4b bc 7d 26 62 bc fd f1 7b 3b 0f 2e 9c 3c
       -0.012423417 -0.013803122 0.0038443797 0.019064931
0002e0 8f a2 b6 bc d7 03 3b bb b2 86 ac 3c e0 9e fd bb
       -0.02229431 -0.0028536224 0.021060321 -0.0077398866
0002f0 68 10 0f 3c 86 c9 94 bc 67 84 97 bc be ef 35 3c
       0.008731939 -0.0181625 -0.018495752 0.011104522
000300 a3 a0 fd bc 9e d9 bf bc dc a2 0c 3d 0a f1 31 38
       -0.030960387 -0.023419198 0.034335002 4.2424574e-05
000310 dd 3c 37 3b 89 bf a2 3c 74 3f e6 bb e7 27 a7 bb
       0.0027959861 0.019866722 -0.007026607 -0.0051011923
000320 3d a7 8a bb 0d 4b 19 bd 52 13 67 3c 6b f4 28 bc
       -0.004231362 -0.03742509 0.014103727 -0.01031218
000330 6e 20 0f 3c a9 4d 07 3c a4 03 ec bc 45 87 12 3b
       0.008735759 0.008258262 -0.02881033 0.002235846
000340 27 d2 93 3c 04 c1 29 bc 9d 52 e9 bc ff 2f 76 3c
       0.018044544 -0.01036096 -0.028481776 0.015026092
000350 1d 31 b0 bc 2c b0 ff 3c 2e 5f 96 bc 84 82 07 3d
       -0.021507794 0.031211935 -0.018355932 0.033083454
000360 e5 c2 64 bc c7 d9 97 3c b6 af 2c bc bf d7 92 bc
       -0.013962482 0.018536462 -0.01053994 -0.017925141
000370 ee f4 03 3d 37 4f de bc 11 59 0c bd 8f 71 44 bc
       0.032216005 -0.027137382 -0.034264628 -0.011989965
000380 62 f3 89 bc 95 f6 a3 ba b6 bd 64 bc 37 21 05 bd
       -0.016839687 -0.00125094 -0.013961246 -0.03250238
000390 c1 b1 90 bc 94 2b a1 bc 06 57 03 3d 74 88 20 3c
       -0.017662885 -0.0196741 0.032065414 0.009798158
0003a0 d2 4f 76 3b bf 95 1b 3c 94 4a 07 3d 48 0f d4 bc
       0.0037584198 0.0094961515 0.033030108 -0.025886193
0003b0 ee 7d df 39 87 f9 ff 3c e2 04 90 bc af bc f0 3c
       0.000426277 0.031246914 -0.017580453 0.029386846
0003c0 0f 91 f6 3c 5d 8c 99 ba 8c 6d b9 bb 3d 96 2a 3a
       0.030098466 -0.0011714805 -0.005658811 0.00065073726
0003d0 8c 5c 23 bc af 78 b6 3b 35 aa 4b 3b 72 5f 8d 3b
       -0.009970795 0.005568586 0.0031076793 0.0043143565
0003e0 69 0f 8d bc 42 c1 6d bc db 7b 47 3c 55 a1 6e bb
       -0.017219262 -0.014511408 0.012175526 -0.003641208
0003f0 02 51 f7 bc 0c 57 d4 3a 6f d4 80 3c 68 ba 16 3c
       -0.030189995 0.0016200258 0.015726296 0.009199716

enc3.conv.bias f4 [64]
000000 07 62 aa bc 27 7e d3 bc 2c 26 e9 3c d1 53 f8 3c
       -0.020798696 -0.02581699 0.028460585 0.030313404
000010 4d cb b5 3c 75 fa d5 3c ba fa b3 3c 1a f1 24 3c
       0.022191668 0.026120404 0.021970142 0.010067249
000020 8c 12 56 3c 98 6b b4 bb 8b 05 5d 3b 9a 24 0b 3d
       0.013065945 -0.0055059902 0.0033725228 0.033970453
000030 87 f0 96 3c 85 08 6a bc 28 76 d5 3c a4 ff 0d 3c
       0.01842524 -0.014284258 0.026057318 0.0086669065
000040 17 fe ad 3c c3 38 3f 3c c8 fc a6 bc 3b d0 63 3c
       0.021239324 0.011671248 -0.020384207 0.0139046265
000050 68 c2 eb 3c 86 57 c6 bc 40 35 93 bc e7 a3 96 3a
       0.028779224 -0.024211656 -0.017969728 0.0011492939
000060 52 c6 03 3d 2b f1 3c bc 13 be 07 bd 17 ca 38 3c
       0.032171555 -0.011532108 -0.033140253 0.011278651
000070 a3 d2 a4 3c bc 47 3a bc a2 8b e5 bc f5 f1 f0 bc
       0.02011997 -0.011369642 -0.028020684 -0.02941225
000080 b4 0d 8b 3b 3e 8e 83 bc 83 14 fd bc 6f bc 6b bc
       0.004243577 -0.016059037 -0.03089357 -0.014388188
000090 d2 a5 9f 3b 41 83 fd bb 9e 13 09 bd 31 b4 84 bc
       0.0048720622 -0.007736594 -0.033465974 -0.016199203
0000a0 28 1b 56 3c 84 bd d0 bc 80 56 f4 3c 80 b4 df 3c
       0.013067998 -0.025480993 0.029826403 0.027307749
0000b0 6f 88 20 3b 48 67 8f bc e0 59 31 3c af dc 13 bb
       0.0024495383 -0.017505303 0.0108246505 -0.0022561958
0000c0 bd 88 cd bc ec 43 d4 3c 82 20 aa 3b a6 0c 41 3a
       -0.025089616 0.025911294 0.0051918635 0.00073642505
0000d0 7e 09 0a bd ed 8f 07 bb f5 56 83 3c d9 85 5d 3c
       -0.03370046 -0.0020685152 0.016032675 0.013520681
0000e0 b5 1b 3a bc 31 23 aa bc d6 c1 9d bb 19 ad 8e 3c
       -0.011359145 -0.020768734 -0.004814367 0.017416524
0000f0 73 a4 65 bc c8 54 00 bd 9d 05 d0 3c 09 43 ff bb
       -0.0140162585 -0.031330854 0.025393302 -0.0077899736

enc3.bn.weight f4 [64]
000000 12 c5 7e 3f 2b 43 80 3f 5e 83 7f 3f d9 b3 7f 3f
       0.99519455 1.0020498 0.99809825 0.998838
000010 e1 02 7f 3f e5 61 7f 3f ba 59 7e 3f 16 d2 7f 3f
       0.9961377 0.9975875 0.9935566 0.9992994
000020 d4 1c 80 3f 84 cc 7c 3f 96 4b 80 3f bb 50 80 3f
       1.0008798 0.98749566 1.0023067 1.0024637
000030 c5 6a 7f 3f b8 49 80 3f ad aa 7e 3f 54 c8 7f 3f
       0.9977229 1.0022497 0.9947918 0.9991505
000040 60 1e 7f 3f 21 6e 7f 3f 54 e3 7e 3f a3 fd 7e 3f
       0.99655724 0.9977742 0.99565625 0.9960577
000050 6a 5a 80 3f d9 fc 7f 3f 2f b8 80 3f c8 1a 7f 3f
       1.0027592 0.9999519 1.0056208 0.9965024
000060 06 30 7e 3f a1 f8 80 3f 44 9f 7e 3f 91 f6 7f 3f
       0.9929203 1.0075876 0.9946177 0.99985605
000070 04 af 7f 3f d4 56 7f 3f ad a1 7f 3f 2a 04 80 3f
       0.9987643 0.99741864 0.9985607 1.0001271
000080 98 fe 7e 3f 8e 99 7f 3f 70 73 7f 3f bd 37 80 3f
       0.9960723 0.9984368 0.9978552 1.001701
000090 36 41 80 3f d9 94 7e 3f 74 4d 7d 3f c5 f4 7f 3f
       1.0019901 0.99445873 0.9894631 0.99982864
0000a0 8e 69 80 3f f7 ba 80 3f 20 3c 81 3f 8d 21 7d 3f
       1.0032213 1.0057057 1.0096474 0.9887932
0000b0 26 33 80 3f 29 e6 7f 3f 9d 04 80 3f 5c 7a 7d 3f
       1.0015609 0.9996057 1.0001408 0.9901483
0000c0 f2 84 7f 3f f7 e3 7d 3f b4 82 7e 3f c3 55 7f 3f
       0.99812233 0.9917597 0.9941819 0.99740237
0000d0 fd 79 80 3f 7d 72 80 3f d2 30 80 3f d4 22 81 3f
       1.0037228 1.0034939 1.0014899 1.0088754
0000e0 98 1a 7f 3f bd 2a 7f 3f df a1 7e 3f d3 c0 7f 3f
       0.99649954 0.9967459 0.99465746 0.999036
0000f0 c3 14 80 3f fa 05 7f 3f e6 86 7e 3f 0d 84 80 3f
       1.0006336 0.99618495 0.9942459 1.0040299

enc3.bn.bias f4 [64]
000000 51 e7 83 ba 54 91 94 3b 8f 96 b3 3b d6 57 a0 38
       -0.0010063444 0.004533926 0.0054805945 7.645755e-05
000010 2e 86 51 ba a1 23 e2 39 82 8d 4f bb 64 c8 06 ba
       -0.00079927116 0.00043132625 -0.0031670039 -0.0005141555
000020 cd 3e 18 3b 91 fd 84 bb ee 3b a1 3a 48 de ea 3a
       0.0023230792 -0.004058548 0.0012301186 0.0017919028
000030 2c 9f c3 3a 3d 01 a7 3b ad ab fb ba fa 08 32 3a
       0.0014924756 0.005096583 -0.0019200944 0.0006791499
000040 36 72 ba b8 47 f1 e4 3a 9c 76 1d bb 9e 46 0c bb
       -8.8904446e-05 0.0017466926 -0.0024026996 -0.0021404396
000050 aa 24 2a 3b 58 11 ad 38 dc 39 ea 3b fa 37 fe b9
       0.0025961795 8.252513e-05 0.0071480107 -0.0004848836
000060 fd 5e 25 bb ab 9b 3c 3c 81 3b 72 bb ca dd 22 3a
       -0.002523362 0.0115117235 -0.0036961737 0.0006212859
000070 28 12 a8 3b f9 f4 b4 3b 28 17 b5 3a a6 90 7e 3b
       0.0051291175 0.005522367 0.0013816105 0.0038843541
000080 cd 8a b2 ba ba 15 9e 3a 9a 61 41 ba 38 a3 4a 3b
       -0.0013621688 0.0012060918 -0.00073769095 0.003092004
000090 17 05 52 b8 39 95 fd ba 58 db a6 bb f2 11 96 3b
       -5.0072642e-05 -0.001934684 -0.005092066 0.004579776
0000a0 1a 62 84 3b 3b 04 9a 3b c0 82 40 3c 00 fd 14 bb
       0.004040015 0.0047002113 0.011749923 -0.0022733808
0000b0 da 93 81 3b 7d 31 cc 3b 02 82 f8 39 c1 b3 a5 bb
       0.003954393 0.0062314854 0.0004739911 -0.0050568287
0000c0 03 28 08 3b 4b fe e1 3a 47 23 74 bb 88 6b 07 3b
       0.0020775802 0.0017241923 -0.0037252472 0.002066346
0000d0 cf 39 a3 3b 32 a9 37 3b 6f c3 87 3a dc 8c 0c 3c
       0.0049812566 0.0028024432 0.0010357926 0.008578505
0000e0 ed 7d f3 b8 c5 72 1c 3b 83 fa cf 39 4e 4a c7 3a
       -0.000116105984 0.002387212 0.00039668762 0.001520464
0000f0 94 aa 6c 39 12 c6 90 bb a6 2f 72 ba 50 05 ea 3b
       0.00022570259 -0.004418143 -0.00092386676 0.0071417466

enc3.bn.running_mean f4 [64]
000000 3c a6 e6 bd 23 45 a5 bd bb 23 fc ba 75 42 ee be
       -0.112621754 -0.080698274 -0.0019236723 -0.46535078
000010 a5 9f 9f 3e 97 79 ad be a2 c8 09 bd 2e ea d0 3c
       0.31176487 -0.33881828 -0.033638604 0.02550229
000020 70 5a b9 bc c4 b7 99 3e 75 5b 1e 3f 4c e3 b1 3e
       -0.022626132 0.30023015 0.618583 0.34743726
000030 4e 74 92 3e bd c5 01 bf 5d 2b f0 be c5 a1 ca be
       0.28604358 -0.5069235 -0.46908084 -0.39576545
000040 0c 29 b1 be 23 6e 05 3e d9 06 30 3e 2e d7 2f 3e
       -0.3460163 0.13030295 0.17190112 0.17171928
000050 f3 cf 1a be a6 cc 89 be 76 92 3b 3e 96 1b e3 be
       -0.15118389 -0.26913947 0.18317589 -0.44356984
000060 a3 f8 18 bf e2 8f 55 be 99 16 f8 be f0 2a c9 bd
       -0.5975439 -0.20855668 -0.4845474 -0.09822643
000070 1f 6e 6a 3e d7 62 19 bd cc a6 d4 be 66 da 88 bd
       0.2289357 -0.037447777 -0.41533506 -0.06682281
000080 6b 76 02 3f b8 82 f2 be 04 91 02 3f 4c 1f 24 be
       0.5096194 -0.47365355 0.51002526 -0.16027564
000090 ab 56 2c 3f 5e 8f 1a 3f 80 67 d0 3e 0e f2 19 be
       0.67319745 0.6037501 0.40703964 -0.15033743
0000a0 58 cd 08 3c f9 a7 1f 3f ea 27 23 be 43 6e 18 3f
       0.008349739 0.6236568 -0.15933195 0.59543246
0000b0 5a 73 c7 3e d5 2b 05 bf 40 ba 89 3e 13 45 18 3f
       0.38955194 -0.5202001 0.2689991 0.594804
0000c0 7b c1 b6 3e b8 06 ec 3c a7 9c a1 be fb 03 2b bc
       0.3569449 0.028811797 -0.3156483 -0.010437961
0000d0 79 b4 df 3d 94 b5 cc be 8a 3d db 3e 58 1b f0 3e
       0.10923094 -0.39982283 0.42820388 0.46895862
0000e0 32 24 3b be f5 9d 8e be 33 ff da be ae e6 16 bf
       -0.18275526 -0.27854887 -0.42772827 -0.5894574
0000f0 0c ba aa 3d ed 14 ca bd 33 9f 29 be 7e cc c3 bc
       0.08336267 -0.098672725 -0.16564636 -0.02390122

enc3.bn.running_var f4 [64]
000000 35 5b 3c 3f 38 3f c5 3d c9 09 68 3f 3e 72 86 3e
       0.7357667 0.09631199 0.9063993 0.26259035
000010 5e 2d bb 3e 37 b9 36 3f 58 30 42 3f ef 58 a0 3e
       0.3655805 0.71376365 0.75855017 0.3131785
000020 53 5e 00 3f b3 d6 8e 3e c6 b1 27 3f ba 90 cd 3e
       0.5014393 0.27898178 0.65505636 0.4014948
000030 8b e0 2b 3f 25 82 0a 3f ff f4 02 3f c0 45 81 3f
       0.671395 0.54104835 0.51155084 1.0099411
000040 9c c9 1c 3f 3b 09 6d 3f 2d 00 02 3f 3e 93 3c 3e
       0.6124513 0.9259221 0.5078152 0.18415543
000050 24 64 14 3f 15 ce 76 3e 4d 21 e4 3e 45 22 30 3f
       0.579653 0.24102052 0.44556656 0.6880229
000060 12 79 0f 3f 15 42 21 3f ce 53 78 3e 68 b8 ac 3e
       0.56044114 0.6299146 0.24250719 0.3373444
000070 3f 54 47 3f 65 3c 2c 3f eb f7 a7 3e 81 6a 38 3f
       0.77862924 0.67279655 0.32806334 0.7203751
000080 7c 3b 88 3f b9 a0 02 3f cf 15 c0 3e f5 ee 71 3e
       1.0643153 0.51026493 0.3751664 0.23626311
000090 5b 54 22 3f 44 c7 31 3f c6 5d 5d 3e 56 02 46 3f
       0.63409966 0.6944468 0.21617803 0.77347314
0000a0 f9 01 08 3f bd 7d 55 3f 13 6a c7 3e 8e e8 f4 3d
       0.5312801 0.83394986 0.38948116 0.11958419
0000b0 59 82 22 3f 90 33 e2 3e cf af 02 3f 36 31 4a 3e
       0.63480145 0.44179964 0.5104951 0.19745335
0000c0 14 12 04 3f 7a cc ef 3e 35 a2 7c 3f 51 81 12 3f
       0.51590085 0.4683569 0.9868501 0.5722857
0000d0 55 1a f7 3e 75 8b 56 3f f6 ee d5 3e 2d e5 fe 3e
       0.48262277 0.83806545 0.41783875 0.49784222
0000e0 14 04 15 3f a4 b1 95 3e a2 7e 8d 3e e0 8c 4b 3f
       0.5820935 0.29237092 0.27635676 0.79511833
0000f0 09 0e 0e 3f 8d 73 ef 3e dd 58 3c 3f e6 25 f2 3e
       0.55490166 0.46767846 0.73573095 0.4729454

dec2.upconv.weight f4 [96, 32, 3, 3, 3]
000000 a4 d0 1c bd cc ff 97 3c 38 28 9a 3c b2 d8 44 3a
       -0.038284913 0.01855459 0.018818006 0.0007509097
000010 40 14 fb bb 1a 35 54 3c 71 7e d1 bc 75 59 82 bc
       -0.007662326 0.0129521135 -0.025572987 -0.015911797
000020 74 d0 bc bc a1 b2 60 bb 29 54 89 3b e7 d6 a8 bb
       -0.023048617 -0.0034286159 0.004190941 -0.0051525715
000030 8e 79 3c 3c 82 6a 09 bd 92 72 59 3c c8 e6 e9 bc
       0.01150359 -0.03354884 0.013271945 -0.028552428
000040 7a 3c d1 bb 86 c6 f4 bc da db f6 bb 23 07 35 bc
       -0.006385383 -0.02987982 -0.0075335326 -0.011049065
000050 65 3a c9 bc c3 db 22 3b f5 7e 0c bc 65 06 a4 3c
       -0.024563977 0.0024850226 -0.008575191 0.02002258
000060 5b b3 f1 3c 1a 43 d1 3c 23 61 f6 3c bb e2 af bc
       0.029504469 0.025544692 0.030075615 -0.021470418
000070 50 01 f0 bc d6 b7 05 3b 97 44 10 bd 5a 4e 20 bc
       -0.0292975 0.0020403764 -0.035221662 -0.0097843055
000080 76 38 fe bc c1 10 01 bd 02 c1 c0 bc 9c b1 27 bc
       -0.031032782 -0.03151012 -0.023529533 -0.0102352165
000090 10 a7 11 bd 61 64 57 bc 0f a9 d0 bc 47 e0 00 3b
       -0.035559714 -0.013146491 -0.025471238 0.001966493
0000a0 91 e8 2e 3c 28 83 d9 3c 21 a9 54 bc bb 53 2f bc
       0.010675565 0.026551798 -0.012979777 -0.010701115
0000b0 38 d4 a0 bc 22 c3 a1 bb 2f ef dd bc a7 ff 02 3d
       -0.019632444 -0.0049365917 -0.02709159 0.03198209
0000c0 fa f8 d8 3b a4 34 d8 bb 8d 9a b9 3c 97 ac 60 bb
       0.006621477 -0.006598072 0.022656703 -0.003428256
0000d0 64 ac f3 bc c2 e0 c5 3c c2 eb 87 3b ce 24 ba 3b
       -0.029745288 0.024155024 0.0041479776 0.005680657
0000e0 54 33 9b 3c 6a 2b 01 bc bb e7 b8 bc fd c7 e4 bb
       0.018945374 -0.007883886 -0.022571435 -0.0069818483
0000f0 f3 e6 bd bb e0 1e 96 bc b5 9f 0d 3d f1 70 21 bc
       -0.0057953536 -0.01832527 0.034576137 -0.0098535875
000100 4a 36 8c 3c 89 ea ef 3b 52 63 01 bd 75 50 e0 3a
       0.01711573 0.00732166 -0.03158886 0.0017113822
000110 8b d3 0c 3c a8 31 02 bd 2e c1 d9 3b 97 04 39 bc
       0.008595358 -0.031785637 0.0066453433 -0.011292598
000120 4f 02 31 bc 08 02 1d bb 03 41 80 bb e4 1a b8 bc
       -0.010803773 -0.002395751 -0.003914 -0.02247376
000130 c6 e4 04 bd cf 39 84 3c c4 f7 07 bd c1 5a 58 3b
       -0.032444738 0.016140847 -0.033195272 0.0033013078
000140 7a 67 a5 bb c8 79 68 bc a5 cb 91 bc 04 be 1e bd
       -0.0050477358 -0.014189191 -0.0177973 -0.03875543
000150 e9 d3 9e bb d7 20 11 bd 62 b3 eb bc 2f a6 90 3b
       -0.004847039 -0.03543171 -0.02877206 0.004414342
000160 34 8f 4f 3c 4a 6f b1 3c a5 2e 93 bc 78 62 b6 bb
       0.01266842 0.021659512 -0.017966578 -0.0055659376
000170 a1 e2 08 bd 6e 3b 2f 3c dc 2c 76 bc cd 9d 09 bd
       -0.033419255 0.0106953215 -0.015025344 -0.033597756
000180 cd 8e 93 bc c2 a3 d4 3c 12 9e 3b bc 76 75 0f ba
       -0.018012429 0.025956992 -0.011451261 -0.000547252
000190 f1 33 ac 3c 99 4e dd bb 5d 2c 30 bb 31 3d c8 bb
       0.021020861 -0.0067537543 -0.0026881911 -0.00611081
0001a0 37 f3 02 3d 47 55 0e 3c 46 86 fb 3c 79 cf d6 3c
       0.03197023 0.008687324 0.030703675 0.026221978
0001b0 32 11 c7 bc 90 b2 4c bc 50 e0 90 bc 12 33 46 bc
       -0.024300192 -0.0124937445 -0.017685086 -0.012097137
0001c0 6e 5b 9d bb 68 50 cf 3c b4 ef 0a 3d 27 44 04 3c
       -0.004802159 0.025306895 0.033920005 0.008072889
0001d0 3a d3 25 bc 4b cc 14 bc 2a b2 e2 3c c0 5c b7 3c
       -0.010121161 -0.00908191 0.027672846 0.022383094
0001e0 0d 27 2d 3b 2a b4 95 3c 25 8f 0c 3d 0e 7c b1 3c
       0.002642098 0.018274385 0.0343162 0.0216656
0001f0 41 09 fa 3c c5 db 91 3b a2 9a 12 bd 9d 62 ce bb
       0.03052199 0.0044512474 -0.035792 -0.0062983767
000200 c9 0c b2 ba 81 6d 09 bd f6 0e c6 bc f8 56 07 bd
       -0.0013584133 -0.033551697 -0.024177056 -0.033041924
000210 03 20 b0 3c 16 bb cc bc 33 f6 1a bc 62 22 bf bc
       0.02149964 -0.024991553 -0.0094581125 -0.023331825
000220 64 1a 13 3d b4 7c fa bc 1d 1b 2f bc ee c3 a5 3c
       0.03591384 -0.030577041 -0.010687617 0.020235028
000230 46 3e 3a 3c 55 0a 9e b9 5e d7 e1 3c 90 aa 7f 39
       0.011367386 -0.00030143806 0.027568515 0.00024382235
000240 44 48 f1 bc 0d 2f 10 bd ef 6a ac bc 4a 75 13 3c
       -0.029453404 -0.03520112 -0.021047084 0.009000132
000250 b5 04 04 3c 5e 07 7c bc ec 7c db bc dd 84 e7 3c
       0.008057763 -0.015382616 -0.026792966 0.028261596
000260 2d d3 4f bb b8 99 9b bc 06 ae 01 bd 7a 52 be 3c
       -0.0031711564 -0.018994197 -0.031660102 0.023232687
000270 b5 3a 94 3c c4 d2 cb 3c eb 3c bd bc 9c 44 85 3b
       0.0180944 0.024880774 -0.023100337 0.0040670168
000280 f0 a7 8f 3c 25 00 fa 3c 42 5f 3f 3c b3 93 93 ba
       0.017536134 0.030517647 0.011680426 -0.0011259228
000290 63 69 f1 3b 16 2e a1 bc 54 77 bf 3c 57 b5 43 bc
       0.0073672994 -0.019675296 0.02337233 -0.01194509
0002a0 eb af d9 bb af 1d 9f bc f6 1a be b9 a1 96 01 3c
       -0.0066432855 -0.019423334 -0.00036259711 0.007909448
0002b0 3e aa 59 bc 77 13 39 ba e4 39 52 bb 1e 49 01 bd
       -0.013285218 -0.00070600904 -0.0032077963 -0.03156387
0002c0 4c 52 8a bc ef d4 25 bd ea 3d 98 bc d2 43 1a 3c
       -0.016884945 -0.040486272 -0.01858421 0.009415584
0002d0 c9 73 bf 3c 75 66 2b bc 41 f7 de bc 7e d9 e7 bc
       0.02337064 -0.010461439 -0.02721751 -0.02830195
0002e0 f4 b4 b5 3c e9 0b 74 bc 7c b8 71 bc 0e 95 e8 bc
       0.022181012 -0.014895418 -0.014753457 -0.028391387
0002f0 6d 4a 8f bb 2b 65 8f 3b bd b3 81 3c a4 5e 0e bc
       -0.004372886 0.004376074 0.015832776 -0.008689556
000300 1f d9 eb 3c 0b bf fc 3a a9 05 f8 3c 76 e4 e9 bc
       0.028790055 0.001928301 0.030276136 -0.028551321
000310 a0 40 db ba a9 72 dd 3c 37 54 97 3c 15 64 87 bb
       -0.0016727634 0.027032213 0.018472774 -0.0041318038
000320 e9 f0 af 3b f3 38 eb 3c e6 c1 56 3c 6f bd 09 bc
       0.005369295 0.028713679 0.013107752 -0.008406981
000330 dd c3 68 bc c7 6a 05 3d 77 65 03 3d 5b 87 07 3d
       -0.014206854 0.032572534 0.032079186 0.03308807
000340 17 b2 f2 3c 53 84 f9 bc 67 13 74 bc b9 a9 fa 3c
       0.029625935 -0.030458605 -0.014897204 0.030598508
000350 33 e9 c3 3c 27 f6 84 bc 5b 27 46 ba 34 04 c3 3b
       0.023914909 -0.016230656 -0.0007558965 0.005951429
000360 8a 5e 6d bb 28 9e ea 3c 41 5d 83 3c 0b 68 20 bc
       -0.003621968 0.028639868 0.016035678 -0.009790431
000370 b2 c3 ef bc 2f d0 fa bb eb 09 68 3c a4 37 66 bc
       -0.02926812 -0.007654212 0.014162521 -0.014051352
000380 82 eb 22 3c 01 82 e9 3c 73 11 19 bc ca a8 41 3c
       0.009943845 0.028504374 -0.009342539 0.011820028
000390 a0 61 fb bc 07 4e a6 3b 3f 77 67 3c fb 92 23 39
       -0.0306862 0.0050752196 0.014127552 0.00015599646
0003a0 d2 e0 98 3c d0 38 82 3b a6 28 9b bc 7b ab 68 3c
       0.01866189 0.0039740577 -0.018940281 0.01420104
0003b0 06 ba 5e 3c fd 91 0d bc 25 3a 56 3c f8 81 23 3c
       0.013594156 -0.008640763 0.013075386 0.009979717
0003c0 c1 02 50 3c cb 76 8c 3c 67 7e c4 bc ab 55 a8 3c
       0.012695969 0.017146489 -0.023986055 0.020548662
0003d0 15 74 c3 bb df d1 7d 3c ed 5c 7d 3c f8 e9 3d 3c
       -0.005964766 0.015491932 0.01546405 0.011591427
0003e0 2e f8 8f bc a0 98 52 3c c7 e4 01 3d 73 fb c9 3b
       -0.017574396 0.012853771 0.03171232 0.0061640083
0003f0 40 e1 99 bc e4 8a 92 bc f1 1f f5 3c fb d1 4b 3c
       -0.018784165 -0.017888494 0.029922457 0.0124402

dec2.upconv.bias f4 [32]
000000 ff 4a b5 bc 08 1d bc 3c eb e7 10 bc 48 95 bf 3c
       -0.022130487 0.022963062 -0.008844356 0.023386613
000010 ca ac 02 3b c5 7c 72 bc 99 df f0 ba 83 26 06 bb
       0.0019939416 -0.014800255 -0.0018377184 -0.0020469732
000020 48 74 c9 ba 98 a4 90 bc a6 26 9c 3c 48 55 39 bc
       -0.0015369738 -0.01765661 0.019061398 -0.011311837
000030 d6 6a 46 3c 4c 1b 10 bd 18 49 2c 3c 77 64 01 bd
       0.012110433 -0.035182282 0.010515474 -0.03158995
000040 53 fa 30 bc fd 13 de bc 68 dc bd bc 0f e6 f7 bc
       -0.010801869 -0.02710914 -0.023176387 -0.030261068
000050 7e 08 22 bc 37 26 9c bc ae 89 30 bc 7c 55 af bb
       -0.00988972 -0.019061191 -0.010775013 -0.0053507667
000060 57 99 d9 bc 73 84 ba bb 95 01 8d bc 62 b3 58 3c
       -0.026562376 -0.0056920587 -0.017212668 0.013226362
000070 c8 2c 57 3c 4c c6 c6 3b 65 be 60 bc 8a 42 a2 3a
       0.013133235 0.0060661193 -0.013717269 0.0012379449

dec2.bn.weight f4 [32]
000000 af ed 7e 3f a4 53 7f 3f b1 16 7e 3f 82 e1 7e 3f
       0.99581426 0.99737 0.99253374 0.9956285
000010 cc 68 7f 3f af d8 7d 3f 66 93 7f 3f 72 ea 7e 3f
       0.9976928 0.9915876 0.9983429 0.99576485
000020 43 41 7f 3f ae 1f 7f 3f d5 37 7f 3f a4 ef 7e 3f
       0.99708956 0.99657714 0.9969457 0.9958441
000030 aa 94 7e 3f a4 5c 7f 3f ce 1c 7f 3f c4 5b 7f 3f
       0.99445593 0.99750733 0.9965333 0.997494
000040 df a1 7e 3f f2 02 7d 3f 35 00 7f 3f fa ae 7e 3f
       0.99465746 0.9883262 0.9960969 0.99485743
000050 db 69 7f 3f da 9d 7f 3f ce 48 7f 3f 50 e5 7e 3f
       0.997709 0.9985024 0.99720466 0.99568653
000060 1e 7e 7f 3f d0 b4 7e 3f b5 38 7e 3f 00 af 7e 3f
       0.99801815 0.9949465 0.9930528 0.9948578
000070 67 b8 7e 3f 29 7e 7e 3f 4f fd 7e 3f c9 2f 7f 3f
       0.99500126 0.99411255 0.9960527 0.9968229

dec2.bn.bias f4 [32]
000000 a3 43 df ba 38 e7 d2 ba 47 e5 d1 bb 74 65 d1 ba
       -0.0017033707 -0.0016090637 -0.006405506 -0.001597567
000010 4b 13 06 38 dd 92 b5 ba 50 2d 83 ba f8 9f b9 ba
       3.1966058e-05 -0.0013852973 -0.0010008011 -0.0014162054
000020 02 3c 83 ba 45 1b 01 bb b7 dd e7 ba d9 ca af ba
       -0.001001239 -0.0019700092 -0.0017689978 -0.0013411894
000030 3c 28 10 bb 7f f7 9a ba bc 63 6d ba 81 62 02 ba
       -0.0021996638 -0.0011823027 -0.0009055694 -0.00049737847
000040 f3 59 00 bb 38 a4 cd bb 65 f8 2c bb 75 7f 17 bb
       -0.0019584864 -0.00627568 -0.0026393172 -0.0023116742
000050 ae 08 4b ba 39 02 08 ba 1b ca 01 bb b6 48 14 bb
       -0.0007745129 -0.00051883195 -0.0019804302 -0.0022626347
000060 a0 44 e1 ba 05 df d7 ba d5 9f 49 bb 34 29 f0 ba
       -0.001718659 -0.0016469663 -0.0030765433 -0.0018322826
000070 f8 76 11 bb c5 0c 94 bb 5d 66 ed ba 03 f3 33 bb
       -0.0022196155 -0.004518124 -0.0018112172 -0.0027458079

dec2.bn.running_mean f4 [32]
000000 4a e4 9b be c0 56 3d bf 8d 0f ce be 9e 42 17 bc
       -0.30447608 -0.73960495 -0.4024624 -0.009232191
000010 17 dc 2a bf 6e 97 26 c0 ef 3c 47 bf e7 08 03 c0
       -0.6674208 -2.6029925 -0.7782735 -2.0474184
000020 96 bd 70 bf bb 6e f7 3e 81 b8 26 bf 0c 28 5c be
       -0.94039285 0.48326668 -0.6512528 -0.21499652
000030 8d 57 5b 3f 12 7c 88 bf af c9 9b be cd c2 92 bf
       0.85680467 -1.0662863 -0.3042731 -1.1465698
000040 8e 9d 95 bf 96 5c cf bf 40 bb 84 bf fe 4a f2 bf
       -1.1688707 -1.620013 -1.0369644 -1.8929136
000050 bd cf cb bf 5f 0d 10 c0 df bb d0 be 72 aa eb be
       -1.5922772 -2.250816 -0.40768334 -0.46028477
000060 06 95 4d bf d9 c3 be bf 7f 6e 87 bf dc 98 08 bf
       -0.80305517 -1.4903518 -1.0580596 -0.53358245
000070 c1 76 ae be b5 06 2b bf 41 87 a4 bf d9 c8 a3 be
       -0.34074977 -0.6680711 -1.2853776 -0.31989172

dec2.bn.running_var f4 [32]
000000 ac 30 b2 40 f9 5a a9 40 61 1e 3d 40 1c 77 e9 40
       5.5684414 5.292355 2.9549792 7.2957897
000010 95 9d 33 40 fe a2 d2 41 55 17 ad 3f 61 5d 80 41
       2.806493 26.329586 1.3522745 16.045595
000020 a8 56 be 40 fc 81 eb 40 66 84 28 40 a4 c5 08 40
       5.948078 7.359617 2.633081 2.137063
000030 90 a6 0a 41 37 92 03 41 2a 81 1b 41 d9 11 b9 40
       8.665665 8.223197 9.719034 5.7834287
000040 f9 e5 06 41 e8 6a 4e 41 2f ac 8b 40 72 ed 6d 41
       8.431146 12.9011 4.3647685 14.87047
000050 53 1f e8 40 51 2f 27 41 b9 15 07 40 2c 92 6d 40
       7.2538238 10.449052 2.1107008 3.7120466
000060 a3 84 68 40 33 95 e9 40 23 e9 c6 3f 0f 2d 8a 40
       3.6330955 7.299463 1.5539898 4.3180003
000070 a0 7f dd 40 05 ba c2 40 83 6c 3e 41 8a 0a 65 40
       6.921829 6.0852075 11.901492 3.5787683
